<?xml version="1.0"?>
<net name="main_graph" version="11">
	<layers>
		<layer id="0" name="input" type="Parameter" version="opset1">
			<data shape="?,3,?,?" element_type="f32" />
			<output>
				<port id="0" precision="FP32" names="input">
					<dim>-1</dim>
					<dim>3</dim>
					<dim>-1</dim>
					<dim>-1</dim>
				</port>
			</output>
		</layer>
		<layer id="1" name="/pre_processor/export_transform/Concat" type="Const" version="opset1">
			<data element_type="i64" shape="4" offset="0" size="32" />
			<rt_info>
				<attribute name="precise" version="0" />
			</rt_info>
			<output>
				<port id="0" precision="I64">
					<dim>4</dim>
				</port>
			</output>
		</layer>
		<layer id="2" name="/pre_processor/export_transform/Reshape" type="Reshape" version="opset1">
			<data special_zero="true" />
			<input>
				<port id="0" precision="FP32">
					<dim>-1</dim>
					<dim>3</dim>
					<dim>-1</dim>
					<dim>-1</dim>
				</port>
				<port id="1" precision="I64">
					<dim>4</dim>
				</port>
			</input>
			<output>
				<port id="2" precision="FP32" names="/pre_processor/export_transform/Reshape_output_0">
					<dim>-1</dim>
					<dim>3</dim>
					<dim>-1</dim>
					<dim>-1</dim>
				</port>
			</output>
		</layer>
		<layer id="3" name="/pre_processor/export_transform/Shape_4" type="ShapeOf" version="opset3">
			<data output_type="i64" />
			<input>
				<port id="0" precision="FP32">
					<dim>-1</dim>
					<dim>3</dim>
					<dim>-1</dim>
					<dim>-1</dim>
				</port>
			</input>
			<output>
				<port id="1" precision="I64" names="/pre_processor/export_transform/Shape_1_output_0,/pre_processor/export_transform/Shape_2_output_0,/pre_processor/export_transform/Shape_3_output_0,/pre_processor/export_transform/Shape_4_output_0,/pre_processor/export_transform/Shape_output_0">
					<dim>4</dim>
				</port>
			</output>
		</layer>
		<layer id="4" name="/pre_processor/export_transform/Constant_7" type="Const" version="opset1">
			<data element_type="i64" shape="1" offset="32" size="8" />
			<rt_info>
				<attribute name="precise" version="0" />
			</rt_info>
			<output>
				<port id="0" precision="I64" names="/pre_processor/export_transform/Constant_7_output_0">
					<dim>1</dim>
				</port>
			</output>
		</layer>
		<layer id="5" name="/pre_processor/export_transform/Constant_8" type="Const" version="opset1">
			<data element_type="i64" shape="1" offset="40" size="8" />
			<rt_info>
				<attribute name="precise" version="0" />
			</rt_info>
			<output>
				<port id="0" precision="I64" names="/pre_processor/export_transform/Constant_8_output_0">
					<dim>1</dim>
				</port>
			</output>
		</layer>
		<layer id="6" name="Broadcast_10251" type="Const" version="opset1">
			<data element_type="i64" shape="1" offset="48" size="8" />
			<rt_info>
				<attribute name="precise" version="0" />
			</rt_info>
			<output>
				<port id="0" precision="I64">
					<dim>1</dim>
				</port>
			</output>
		</layer>
		<layer id="7" name="/pre_processor/export_transform/Constant_6" type="Const" version="opset1">
			<data element_type="i64" shape="1" offset="32" size="8" />
			<rt_info>
				<attribute name="precise" version="0" />
			</rt_info>
			<output>
				<port id="0" precision="I64" names="/pre_processor/export_transform/Constant_6_output_0">
					<dim>1</dim>
				</port>
			</output>
		</layer>
		<layer id="8" name="/pre_processor/export_transform/Slice" type="Slice" version="opset8">
			<input>
				<port id="0" precision="I64">
					<dim>4</dim>
				</port>
				<port id="1" precision="I64">
					<dim>1</dim>
				</port>
				<port id="2" precision="I64">
					<dim>1</dim>
				</port>
				<port id="3" precision="I64">
					<dim>1</dim>
				</port>
				<port id="4" precision="I64">
					<dim>1</dim>
				</port>
			</input>
			<output>
				<port id="5" precision="I64" names="/pre_processor/export_transform/Slice_output_0">
					<dim>2</dim>
				</port>
			</output>
		</layer>
		<layer id="9" name="/pre_processor/export_transform/Constant_9" type="Const" version="opset1">
			<data element_type="i64" shape="2" offset="56" size="16" />
			<rt_info>
				<attribute name="precise" version="0" />
			</rt_info>
			<output>
				<port id="0" precision="I64" names="/pre_processor/export_transform/Constant_9_output_0">
					<dim>2</dim>
				</port>
			</output>
		</layer>
		<layer id="10" name="/pre_processor/export_transform/Concat_1" type="Concat" version="opset1">
			<data axis="0" />
			<input>
				<port id="0" precision="I64">
					<dim>2</dim>
				</port>
				<port id="1" precision="I64">
					<dim>2</dim>
				</port>
			</input>
			<output>
				<port id="2" precision="I64" names="/pre_processor/export_transform/Concat_1_output_0,/pre_processor/export_transform/Concat_2_output_0">
					<dim>4</dim>
				</port>
			</output>
		</layer>
		<layer id="11" name="/pre_processor/export_transform/Resize" type="Interpolate" version="opset11">
			<data mode="linear_onnx" shape_calculation_mode="sizes" coordinate_transformation_mode="half_pixel" nearest_mode="floor" antialias="false" pads_begin="0, 0, 0, 0" pads_end="0, 0, 0, 0" cube_coeff="-0.75" />
			<input>
				<port id="0" precision="FP32">
					<dim>-1</dim>
					<dim>3</dim>
					<dim>-1</dim>
					<dim>-1</dim>
				</port>
				<port id="1" precision="I64">
					<dim>4</dim>
				</port>
			</input>
			<output>
				<port id="2" precision="FP32" names="/pre_processor/export_transform/Resize_output_0">
					<dim>-1</dim>
					<dim>3</dim>
					<dim>256</dim>
					<dim>256</dim>
				</port>
			</output>
		</layer>
		<layer id="12" name="Constant_14451" type="Const" version="opset1">
			<data element_type="i64" shape="4" offset="72" size="32" />
			<rt_info>
				<attribute name="precise" version="0" />
			</rt_info>
			<output>
				<port id="0" precision="I64">
					<dim>4</dim>
				</port>
			</output>
		</layer>
		<layer id="13" name="/pre_processor/export_transform/Reshape_1" type="Reshape" version="opset1">
			<data special_zero="true" />
			<input>
				<port id="0" precision="FP32">
					<dim>-1</dim>
					<dim>3</dim>
					<dim>256</dim>
					<dim>256</dim>
				</port>
				<port id="1" precision="I64">
					<dim>4</dim>
				</port>
			</input>
			<output>
				<port id="2" precision="FP32" names="/pre_processor/export_transform/Reshape_1_output_0">
					<dim>-1</dim>
					<dim>3</dim>
					<dim>256</dim>
					<dim>256</dim>
				</port>
			</output>
		</layer>
		<layer id="14" name="Constant_13923" type="Const" version="opset1">
			<data element_type="i64" shape="2" offset="104" size="16" />
			<output>
				<port id="0" precision="I64">
					<dim>2</dim>
				</port>
			</output>
		</layer>
		<layer id="15" name="Constant_13922" type="Const" version="opset1">
			<data element_type="i64" shape="2" offset="120" size="16" />
			<output>
				<port id="0" precision="I64">
					<dim>2</dim>
				</port>
			</output>
		</layer>
		<layer id="16" name="Constant_13921" type="Const" version="opset1">
			<data element_type="i64" shape="2" offset="136" size="16" />
			<output>
				<port id="0" precision="I64">
					<dim>2</dim>
				</port>
			</output>
		</layer>
		<layer id="17" name="Constant_13920" type="Const" version="opset1">
			<data element_type="i64" shape="2" offset="152" size="16" />
			<output>
				<port id="0" precision="I64">
					<dim>2</dim>
				</port>
			</output>
		</layer>
		<layer id="18" name="/pre_processor/export_transform/Slice_2" type="Slice" version="opset8">
			<input>
				<port id="0" precision="FP32">
					<dim>-1</dim>
					<dim>3</dim>
					<dim>256</dim>
					<dim>256</dim>
				</port>
				<port id="1" precision="I64">
					<dim>2</dim>
				</port>
				<port id="2" precision="I64">
					<dim>2</dim>
				</port>
				<port id="3" precision="I64">
					<dim>2</dim>
				</port>
				<port id="4" precision="I64">
					<dim>2</dim>
				</port>
			</input>
			<output>
				<port id="5" precision="FP32" names="/pre_processor/export_transform/Slice_2_output_0">
					<dim>-1</dim>
					<dim>3</dim>
					<dim>224</dim>
					<dim>224</dim>
				</port>
			</output>
		</layer>
		<layer id="19" name="Constant_14213_compressed" type="Const" version="opset1">
			<data element_type="f16" shape="1, 3, 1, 1" offset="168" size="6" />
			<output>
				<port id="0" precision="FP16">
					<dim>1</dim>
					<dim>3</dim>
					<dim>1</dim>
					<dim>1</dim>
				</port>
			</output>
		</layer>
		<layer id="20" name="Constant_14213" type="Convert" version="opset1">
			<data destination_type="f32" />
			<rt_info>
				<attribute name="decompression" version="0" />
			</rt_info>
			<input>
				<port id="0" precision="FP16">
					<dim>1</dim>
					<dim>3</dim>
					<dim>1</dim>
					<dim>1</dim>
				</port>
			</input>
			<output>
				<port id="1" precision="FP32">
					<dim>1</dim>
					<dim>3</dim>
					<dim>1</dim>
					<dim>1</dim>
				</port>
			</output>
		</layer>
		<layer id="21" name="Multiply_14104" type="Multiply" version="opset1">
			<data auto_broadcast="numpy" />
			<input>
				<port id="0" precision="FP32">
					<dim>-1</dim>
					<dim>3</dim>
					<dim>224</dim>
					<dim>224</dim>
				</port>
				<port id="1" precision="FP32">
					<dim>1</dim>
					<dim>3</dim>
					<dim>1</dim>
					<dim>1</dim>
				</port>
			</input>
			<output>
				<port id="2" precision="FP32">
					<dim>-1</dim>
					<dim>3</dim>
					<dim>224</dim>
					<dim>224</dim>
				</port>
			</output>
		</layer>
		<layer id="22" name="Constant_14214_compressed" type="Const" version="opset1">
			<data element_type="f16" shape="1, 3, 1, 1" offset="174" size="6" />
			<output>
				<port id="0" precision="FP16">
					<dim>1</dim>
					<dim>3</dim>
					<dim>1</dim>
					<dim>1</dim>
				</port>
			</output>
		</layer>
		<layer id="23" name="Constant_14214" type="Convert" version="opset1">
			<data destination_type="f32" />
			<rt_info>
				<attribute name="decompression" version="0" />
			</rt_info>
			<input>
				<port id="0" precision="FP16">
					<dim>1</dim>
					<dim>3</dim>
					<dim>1</dim>
					<dim>1</dim>
				</port>
			</input>
			<output>
				<port id="1" precision="FP32">
					<dim>1</dim>
					<dim>3</dim>
					<dim>1</dim>
					<dim>1</dim>
				</port>
			</output>
		</layer>
		<layer id="24" name="/pre_processor/export_transform/Div" type="Add" version="opset1">
			<data auto_broadcast="numpy" />
			<input>
				<port id="0" precision="FP32">
					<dim>-1</dim>
					<dim>3</dim>
					<dim>224</dim>
					<dim>224</dim>
				</port>
				<port id="1" precision="FP32">
					<dim>1</dim>
					<dim>3</dim>
					<dim>1</dim>
					<dim>1</dim>
				</port>
			</input>
			<output>
				<port id="2" precision="FP32" names="/pre_processor/export_transform/Div_output_0">
					<dim>-1</dim>
					<dim>3</dim>
					<dim>224</dim>
					<dim>224</dim>
				</port>
			</output>
		</layer>
		<layer id="25" name="onnx::Conv_501_compressed" type="Const" version="opset1">
			<data element_type="f16" shape="64, 3, 7, 7" offset="180" size="18816" />
			<output>
				<port id="0" precision="FP16" names="onnx::Conv_501">
					<dim>64</dim>
					<dim>3</dim>
					<dim>7</dim>
					<dim>7</dim>
				</port>
			</output>
		</layer>
		<layer id="26" name="onnx::Conv_501" type="Convert" version="opset1">
			<data destination_type="f32" />
			<rt_info>
				<attribute name="decompression" version="0" />
			</rt_info>
			<input>
				<port id="0" precision="FP16">
					<dim>64</dim>
					<dim>3</dim>
					<dim>7</dim>
					<dim>7</dim>
				</port>
			</input>
			<output>
				<port id="1" precision="FP32">
					<dim>64</dim>
					<dim>3</dim>
					<dim>7</dim>
					<dim>7</dim>
				</port>
			</output>
		</layer>
		<layer id="27" name="/model/feature_extractor/feature_extractor/conv1/Conv/WithoutBiases" type="Convolution" version="opset1">
			<data strides="2, 2" dilations="1, 1" pads_begin="3, 3" pads_end="3, 3" auto_pad="explicit" />
			<input>
				<port id="0" precision="FP32">
					<dim>-1</dim>
					<dim>3</dim>
					<dim>224</dim>
					<dim>224</dim>
				</port>
				<port id="1" precision="FP32">
					<dim>64</dim>
					<dim>3</dim>
					<dim>7</dim>
					<dim>7</dim>
				</port>
			</input>
			<output>
				<port id="2" precision="FP32">
					<dim>-1</dim>
					<dim>64</dim>
					<dim>112</dim>
					<dim>112</dim>
				</port>
			</output>
		</layer>
		<layer id="28" name="Reshape_10304_compressed" type="Const" version="opset1">
			<data element_type="f16" shape="1, 64, 1, 1" offset="18996" size="128" />
			<output>
				<port id="0" precision="FP16">
					<dim>1</dim>
					<dim>64</dim>
					<dim>1</dim>
					<dim>1</dim>
				</port>
			</output>
		</layer>
		<layer id="29" name="Reshape_10304" type="Convert" version="opset1">
			<data destination_type="f32" />
			<rt_info>
				<attribute name="decompression" version="0" />
			</rt_info>
			<input>
				<port id="0" precision="FP16">
					<dim>1</dim>
					<dim>64</dim>
					<dim>1</dim>
					<dim>1</dim>
				</port>
			</input>
			<output>
				<port id="1" precision="FP32">
					<dim>1</dim>
					<dim>64</dim>
					<dim>1</dim>
					<dim>1</dim>
				</port>
			</output>
		</layer>
		<layer id="30" name="/model/feature_extractor/feature_extractor/conv1/Conv" type="Add" version="opset1">
			<data auto_broadcast="numpy" />
			<input>
				<port id="0" precision="FP32">
					<dim>-1</dim>
					<dim>64</dim>
					<dim>112</dim>
					<dim>112</dim>
				</port>
				<port id="1" precision="FP32">
					<dim>1</dim>
					<dim>64</dim>
					<dim>1</dim>
					<dim>1</dim>
				</port>
			</input>
			<output>
				<port id="2" precision="FP32" names="/model/feature_extractor/feature_extractor/conv1/Conv_output_0">
					<dim>-1</dim>
					<dim>64</dim>
					<dim>112</dim>
					<dim>112</dim>
				</port>
			</output>
		</layer>
		<layer id="31" name="/model/feature_extractor/feature_extractor/act1/Relu" type="ReLU" version="opset1">
			<input>
				<port id="0" precision="FP32">
					<dim>-1</dim>
					<dim>64</dim>
					<dim>112</dim>
					<dim>112</dim>
				</port>
			</input>
			<output>
				<port id="1" precision="FP32" names="/model/feature_extractor/feature_extractor/act1/Relu_output_0">
					<dim>-1</dim>
					<dim>64</dim>
					<dim>112</dim>
					<dim>112</dim>
				</port>
			</output>
		</layer>
		<layer id="32" name="/model/feature_extractor/feature_extractor/maxpool/MaxPool" type="MaxPool" version="opset8">
			<data strides="2, 2" dilations="1, 1" pads_begin="1, 1" pads_end="1, 1" kernel="3, 3" rounding_type="floor" auto_pad="explicit" index_element_type="i64" axis="0" />
			<input>
				<port id="0" precision="FP32">
					<dim>-1</dim>
					<dim>64</dim>
					<dim>112</dim>
					<dim>112</dim>
				</port>
			</input>
			<output>
				<port id="1" precision="FP32" names="/model/feature_extractor/feature_extractor/maxpool/MaxPool_output_0">
					<dim>-1</dim>
					<dim>64</dim>
					<dim>56</dim>
					<dim>56</dim>
				</port>
				<port id="2" precision="I64">
					<dim>-1</dim>
					<dim>64</dim>
					<dim>56</dim>
					<dim>56</dim>
				</port>
			</output>
		</layer>
		<layer id="33" name="onnx::Conv_504_compressed" type="Const" version="opset1">
			<data element_type="f16" shape="64, 64, 3, 3" offset="19124" size="73728" />
			<output>
				<port id="0" precision="FP16" names="onnx::Conv_504">
					<dim>64</dim>
					<dim>64</dim>
					<dim>3</dim>
					<dim>3</dim>
				</port>
			</output>
		</layer>
		<layer id="34" name="onnx::Conv_504" type="Convert" version="opset1">
			<data destination_type="f32" />
			<rt_info>
				<attribute name="decompression" version="0" />
			</rt_info>
			<input>
				<port id="0" precision="FP16">
					<dim>64</dim>
					<dim>64</dim>
					<dim>3</dim>
					<dim>3</dim>
				</port>
			</input>
			<output>
				<port id="1" precision="FP32">
					<dim>64</dim>
					<dim>64</dim>
					<dim>3</dim>
					<dim>3</dim>
				</port>
			</output>
		</layer>
		<layer id="35" name="/model/feature_extractor/feature_extractor/layer1/layer1.0/conv1/Conv/WithoutBiases" type="Convolution" version="opset1">
			<data strides="1, 1" dilations="1, 1" pads_begin="1, 1" pads_end="1, 1" auto_pad="explicit" />
			<input>
				<port id="0" precision="FP32">
					<dim>-1</dim>
					<dim>64</dim>
					<dim>56</dim>
					<dim>56</dim>
				</port>
				<port id="1" precision="FP32">
					<dim>64</dim>
					<dim>64</dim>
					<dim>3</dim>
					<dim>3</dim>
				</port>
			</input>
			<output>
				<port id="2" precision="FP32">
					<dim>-1</dim>
					<dim>64</dim>
					<dim>56</dim>
					<dim>56</dim>
				</port>
			</output>
		</layer>
		<layer id="36" name="Reshape_10319_compressed" type="Const" version="opset1">
			<data element_type="f16" shape="1, 64, 1, 1" offset="92852" size="128" />
			<output>
				<port id="0" precision="FP16">
					<dim>1</dim>
					<dim>64</dim>
					<dim>1</dim>
					<dim>1</dim>
				</port>
			</output>
		</layer>
		<layer id="37" name="Reshape_10319" type="Convert" version="opset1">
			<data destination_type="f32" />
			<rt_info>
				<attribute name="decompression" version="0" />
			</rt_info>
			<input>
				<port id="0" precision="FP16">
					<dim>1</dim>
					<dim>64</dim>
					<dim>1</dim>
					<dim>1</dim>
				</port>
			</input>
			<output>
				<port id="1" precision="FP32">
					<dim>1</dim>
					<dim>64</dim>
					<dim>1</dim>
					<dim>1</dim>
				</port>
			</output>
		</layer>
		<layer id="38" name="/model/feature_extractor/feature_extractor/layer1/layer1.0/conv1/Conv" type="Add" version="opset1">
			<data auto_broadcast="numpy" />
			<input>
				<port id="0" precision="FP32">
					<dim>-1</dim>
					<dim>64</dim>
					<dim>56</dim>
					<dim>56</dim>
				</port>
				<port id="1" precision="FP32">
					<dim>1</dim>
					<dim>64</dim>
					<dim>1</dim>
					<dim>1</dim>
				</port>
			</input>
			<output>
				<port id="2" precision="FP32" names="/model/feature_extractor/feature_extractor/layer1/layer1.0/conv1/Conv_output_0">
					<dim>-1</dim>
					<dim>64</dim>
					<dim>56</dim>
					<dim>56</dim>
				</port>
			</output>
		</layer>
		<layer id="39" name="/model/feature_extractor/feature_extractor/layer1/layer1.0/act1/Relu" type="ReLU" version="opset1">
			<input>
				<port id="0" precision="FP32">
					<dim>-1</dim>
					<dim>64</dim>
					<dim>56</dim>
					<dim>56</dim>
				</port>
			</input>
			<output>
				<port id="1" precision="FP32" names="/model/feature_extractor/feature_extractor/layer1/layer1.0/act1/Relu_output_0">
					<dim>-1</dim>
					<dim>64</dim>
					<dim>56</dim>
					<dim>56</dim>
				</port>
			</output>
		</layer>
		<layer id="40" name="onnx::Conv_507_compressed" type="Const" version="opset1">
			<data element_type="f16" shape="64, 64, 3, 3" offset="92980" size="73728" />
			<output>
				<port id="0" precision="FP16" names="onnx::Conv_507">
					<dim>64</dim>
					<dim>64</dim>
					<dim>3</dim>
					<dim>3</dim>
				</port>
			</output>
		</layer>
		<layer id="41" name="onnx::Conv_507" type="Convert" version="opset1">
			<data destination_type="f32" />
			<rt_info>
				<attribute name="decompression" version="0" />
			</rt_info>
			<input>
				<port id="0" precision="FP16">
					<dim>64</dim>
					<dim>64</dim>
					<dim>3</dim>
					<dim>3</dim>
				</port>
			</input>
			<output>
				<port id="1" precision="FP32">
					<dim>64</dim>
					<dim>64</dim>
					<dim>3</dim>
					<dim>3</dim>
				</port>
			</output>
		</layer>
		<layer id="42" name="/model/feature_extractor/feature_extractor/layer1/layer1.0/conv2/Conv/WithoutBiases" type="Convolution" version="opset1">
			<data strides="1, 1" dilations="1, 1" pads_begin="1, 1" pads_end="1, 1" auto_pad="explicit" />
			<input>
				<port id="0" precision="FP32">
					<dim>-1</dim>
					<dim>64</dim>
					<dim>56</dim>
					<dim>56</dim>
				</port>
				<port id="1" precision="FP32">
					<dim>64</dim>
					<dim>64</dim>
					<dim>3</dim>
					<dim>3</dim>
				</port>
			</input>
			<output>
				<port id="2" precision="FP32">
					<dim>-1</dim>
					<dim>64</dim>
					<dim>56</dim>
					<dim>56</dim>
				</port>
			</output>
		</layer>
		<layer id="43" name="Reshape_10333_compressed" type="Const" version="opset1">
			<data element_type="f16" shape="1, 64, 1, 1" offset="166708" size="128" />
			<output>
				<port id="0" precision="FP16">
					<dim>1</dim>
					<dim>64</dim>
					<dim>1</dim>
					<dim>1</dim>
				</port>
			</output>
		</layer>
		<layer id="44" name="Reshape_10333" type="Convert" version="opset1">
			<data destination_type="f32" />
			<rt_info>
				<attribute name="decompression" version="0" />
			</rt_info>
			<input>
				<port id="0" precision="FP16">
					<dim>1</dim>
					<dim>64</dim>
					<dim>1</dim>
					<dim>1</dim>
				</port>
			</input>
			<output>
				<port id="1" precision="FP32">
					<dim>1</dim>
					<dim>64</dim>
					<dim>1</dim>
					<dim>1</dim>
				</port>
			</output>
		</layer>
		<layer id="45" name="/model/feature_extractor/feature_extractor/layer1/layer1.0/conv2/Conv" type="Add" version="opset1">
			<data auto_broadcast="numpy" />
			<input>
				<port id="0" precision="FP32">
					<dim>-1</dim>
					<dim>64</dim>
					<dim>56</dim>
					<dim>56</dim>
				</port>
				<port id="1" precision="FP32">
					<dim>1</dim>
					<dim>64</dim>
					<dim>1</dim>
					<dim>1</dim>
				</port>
			</input>
			<output>
				<port id="2" precision="FP32" names="/model/feature_extractor/feature_extractor/layer1/layer1.0/conv2/Conv_output_0">
					<dim>-1</dim>
					<dim>64</dim>
					<dim>56</dim>
					<dim>56</dim>
				</port>
			</output>
		</layer>
		<layer id="46" name="/model/feature_extractor/feature_extractor/layer1/layer1.0/Add" type="Add" version="opset1">
			<data auto_broadcast="numpy" />
			<input>
				<port id="0" precision="FP32">
					<dim>-1</dim>
					<dim>64</dim>
					<dim>56</dim>
					<dim>56</dim>
				</port>
				<port id="1" precision="FP32">
					<dim>-1</dim>
					<dim>64</dim>
					<dim>56</dim>
					<dim>56</dim>
				</port>
			</input>
			<output>
				<port id="2" precision="FP32" names="/model/feature_extractor/feature_extractor/layer1/layer1.0/Add_output_0">
					<dim>-1</dim>
					<dim>64</dim>
					<dim>56</dim>
					<dim>56</dim>
				</port>
			</output>
		</layer>
		<layer id="47" name="/model/feature_extractor/feature_extractor/layer1/layer1.0/act2/Relu" type="ReLU" version="opset1">
			<input>
				<port id="0" precision="FP32">
					<dim>-1</dim>
					<dim>64</dim>
					<dim>56</dim>
					<dim>56</dim>
				</port>
			</input>
			<output>
				<port id="1" precision="FP32" names="/model/feature_extractor/feature_extractor/layer1/layer1.0/act2/Relu_output_0">
					<dim>-1</dim>
					<dim>64</dim>
					<dim>56</dim>
					<dim>56</dim>
				</port>
			</output>
		</layer>
		<layer id="48" name="onnx::Conv_510_compressed" type="Const" version="opset1">
			<data element_type="f16" shape="64, 64, 3, 3" offset="166836" size="73728" />
			<output>
				<port id="0" precision="FP16" names="onnx::Conv_510">
					<dim>64</dim>
					<dim>64</dim>
					<dim>3</dim>
					<dim>3</dim>
				</port>
			</output>
		</layer>
		<layer id="49" name="onnx::Conv_510" type="Convert" version="opset1">
			<data destination_type="f32" />
			<rt_info>
				<attribute name="decompression" version="0" />
			</rt_info>
			<input>
				<port id="0" precision="FP16">
					<dim>64</dim>
					<dim>64</dim>
					<dim>3</dim>
					<dim>3</dim>
				</port>
			</input>
			<output>
				<port id="1" precision="FP32">
					<dim>64</dim>
					<dim>64</dim>
					<dim>3</dim>
					<dim>3</dim>
				</port>
			</output>
		</layer>
		<layer id="50" name="/model/feature_extractor/feature_extractor/layer1/layer1.1/conv1/Conv/WithoutBiases" type="Convolution" version="opset1">
			<data strides="1, 1" dilations="1, 1" pads_begin="1, 1" pads_end="1, 1" auto_pad="explicit" />
			<input>
				<port id="0" precision="FP32">
					<dim>-1</dim>
					<dim>64</dim>
					<dim>56</dim>
					<dim>56</dim>
				</port>
				<port id="1" precision="FP32">
					<dim>64</dim>
					<dim>64</dim>
					<dim>3</dim>
					<dim>3</dim>
				</port>
			</input>
			<output>
				<port id="2" precision="FP32">
					<dim>-1</dim>
					<dim>64</dim>
					<dim>56</dim>
					<dim>56</dim>
				</port>
			</output>
		</layer>
		<layer id="51" name="Reshape_10348_compressed" type="Const" version="opset1">
			<data element_type="f16" shape="1, 64, 1, 1" offset="240564" size="128" />
			<output>
				<port id="0" precision="FP16">
					<dim>1</dim>
					<dim>64</dim>
					<dim>1</dim>
					<dim>1</dim>
				</port>
			</output>
		</layer>
		<layer id="52" name="Reshape_10348" type="Convert" version="opset1">
			<data destination_type="f32" />
			<rt_info>
				<attribute name="decompression" version="0" />
			</rt_info>
			<input>
				<port id="0" precision="FP16">
					<dim>1</dim>
					<dim>64</dim>
					<dim>1</dim>
					<dim>1</dim>
				</port>
			</input>
			<output>
				<port id="1" precision="FP32">
					<dim>1</dim>
					<dim>64</dim>
					<dim>1</dim>
					<dim>1</dim>
				</port>
			</output>
		</layer>
		<layer id="53" name="/model/feature_extractor/feature_extractor/layer1/layer1.1/conv1/Conv" type="Add" version="opset1">
			<data auto_broadcast="numpy" />
			<input>
				<port id="0" precision="FP32">
					<dim>-1</dim>
					<dim>64</dim>
					<dim>56</dim>
					<dim>56</dim>
				</port>
				<port id="1" precision="FP32">
					<dim>1</dim>
					<dim>64</dim>
					<dim>1</dim>
					<dim>1</dim>
				</port>
			</input>
			<output>
				<port id="2" precision="FP32" names="/model/feature_extractor/feature_extractor/layer1/layer1.1/conv1/Conv_output_0">
					<dim>-1</dim>
					<dim>64</dim>
					<dim>56</dim>
					<dim>56</dim>
				</port>
			</output>
		</layer>
		<layer id="54" name="/model/feature_extractor/feature_extractor/layer1/layer1.1/act1/Relu" type="ReLU" version="opset1">
			<input>
				<port id="0" precision="FP32">
					<dim>-1</dim>
					<dim>64</dim>
					<dim>56</dim>
					<dim>56</dim>
				</port>
			</input>
			<output>
				<port id="1" precision="FP32" names="/model/feature_extractor/feature_extractor/layer1/layer1.1/act1/Relu_output_0">
					<dim>-1</dim>
					<dim>64</dim>
					<dim>56</dim>
					<dim>56</dim>
				</port>
			</output>
		</layer>
		<layer id="55" name="onnx::Conv_513_compressed" type="Const" version="opset1">
			<data element_type="f16" shape="64, 64, 3, 3" offset="240692" size="73728" />
			<output>
				<port id="0" precision="FP16" names="onnx::Conv_513">
					<dim>64</dim>
					<dim>64</dim>
					<dim>3</dim>
					<dim>3</dim>
				</port>
			</output>
		</layer>
		<layer id="56" name="onnx::Conv_513" type="Convert" version="opset1">
			<data destination_type="f32" />
			<rt_info>
				<attribute name="decompression" version="0" />
			</rt_info>
			<input>
				<port id="0" precision="FP16">
					<dim>64</dim>
					<dim>64</dim>
					<dim>3</dim>
					<dim>3</dim>
				</port>
			</input>
			<output>
				<port id="1" precision="FP32">
					<dim>64</dim>
					<dim>64</dim>
					<dim>3</dim>
					<dim>3</dim>
				</port>
			</output>
		</layer>
		<layer id="57" name="/model/feature_extractor/feature_extractor/layer1/layer1.1/conv2/Conv/WithoutBiases" type="Convolution" version="opset1">
			<data strides="1, 1" dilations="1, 1" pads_begin="1, 1" pads_end="1, 1" auto_pad="explicit" />
			<input>
				<port id="0" precision="FP32">
					<dim>-1</dim>
					<dim>64</dim>
					<dim>56</dim>
					<dim>56</dim>
				</port>
				<port id="1" precision="FP32">
					<dim>64</dim>
					<dim>64</dim>
					<dim>3</dim>
					<dim>3</dim>
				</port>
			</input>
			<output>
				<port id="2" precision="FP32">
					<dim>-1</dim>
					<dim>64</dim>
					<dim>56</dim>
					<dim>56</dim>
				</port>
			</output>
		</layer>
		<layer id="58" name="Reshape_10362_compressed" type="Const" version="opset1">
			<data element_type="f16" shape="1, 64, 1, 1" offset="314420" size="128" />
			<output>
				<port id="0" precision="FP16">
					<dim>1</dim>
					<dim>64</dim>
					<dim>1</dim>
					<dim>1</dim>
				</port>
			</output>
		</layer>
		<layer id="59" name="Reshape_10362" type="Convert" version="opset1">
			<data destination_type="f32" />
			<rt_info>
				<attribute name="decompression" version="0" />
			</rt_info>
			<input>
				<port id="0" precision="FP16">
					<dim>1</dim>
					<dim>64</dim>
					<dim>1</dim>
					<dim>1</dim>
				</port>
			</input>
			<output>
				<port id="1" precision="FP32">
					<dim>1</dim>
					<dim>64</dim>
					<dim>1</dim>
					<dim>1</dim>
				</port>
			</output>
		</layer>
		<layer id="60" name="/model/feature_extractor/feature_extractor/layer1/layer1.1/conv2/Conv" type="Add" version="opset1">
			<data auto_broadcast="numpy" />
			<input>
				<port id="0" precision="FP32">
					<dim>-1</dim>
					<dim>64</dim>
					<dim>56</dim>
					<dim>56</dim>
				</port>
				<port id="1" precision="FP32">
					<dim>1</dim>
					<dim>64</dim>
					<dim>1</dim>
					<dim>1</dim>
				</port>
			</input>
			<output>
				<port id="2" precision="FP32" names="/model/feature_extractor/feature_extractor/layer1/layer1.1/conv2/Conv_output_0">
					<dim>-1</dim>
					<dim>64</dim>
					<dim>56</dim>
					<dim>56</dim>
				</port>
			</output>
		</layer>
		<layer id="61" name="/model/feature_extractor/feature_extractor/layer1/layer1.1/Add" type="Add" version="opset1">
			<data auto_broadcast="numpy" />
			<input>
				<port id="0" precision="FP32">
					<dim>-1</dim>
					<dim>64</dim>
					<dim>56</dim>
					<dim>56</dim>
				</port>
				<port id="1" precision="FP32">
					<dim>-1</dim>
					<dim>64</dim>
					<dim>56</dim>
					<dim>56</dim>
				</port>
			</input>
			<output>
				<port id="2" precision="FP32" names="/model/feature_extractor/feature_extractor/layer1/layer1.1/Add_output_0">
					<dim>-1</dim>
					<dim>64</dim>
					<dim>56</dim>
					<dim>56</dim>
				</port>
			</output>
		</layer>
		<layer id="62" name="/model/feature_extractor/feature_extractor/layer1/layer1.1/act2/Relu" type="ReLU" version="opset1">
			<input>
				<port id="0" precision="FP32">
					<dim>-1</dim>
					<dim>64</dim>
					<dim>56</dim>
					<dim>56</dim>
				</port>
			</input>
			<output>
				<port id="1" precision="FP32" names="/model/feature_extractor/feature_extractor/layer1/layer1.1/act2/Relu_output_0">
					<dim>-1</dim>
					<dim>64</dim>
					<dim>56</dim>
					<dim>56</dim>
				</port>
			</output>
		</layer>
		<layer id="63" name="onnx::Conv_516_compressed" type="Const" version="opset1">
			<data element_type="f16" shape="128, 64, 3, 3" offset="314548" size="147456" />
			<output>
				<port id="0" precision="FP16" names="onnx::Conv_516">
					<dim>128</dim>
					<dim>64</dim>
					<dim>3</dim>
					<dim>3</dim>
				</port>
			</output>
		</layer>
		<layer id="64" name="onnx::Conv_516" type="Convert" version="opset1">
			<data destination_type="f32" />
			<rt_info>
				<attribute name="decompression" version="0" />
			</rt_info>
			<input>
				<port id="0" precision="FP16">
					<dim>128</dim>
					<dim>64</dim>
					<dim>3</dim>
					<dim>3</dim>
				</port>
			</input>
			<output>
				<port id="1" precision="FP32">
					<dim>128</dim>
					<dim>64</dim>
					<dim>3</dim>
					<dim>3</dim>
				</port>
			</output>
		</layer>
		<layer id="65" name="/model/feature_extractor/feature_extractor/layer2/layer2.0/conv1/Conv/WithoutBiases" type="Convolution" version="opset1">
			<data strides="2, 2" dilations="1, 1" pads_begin="1, 1" pads_end="1, 1" auto_pad="explicit" />
			<input>
				<port id="0" precision="FP32">
					<dim>-1</dim>
					<dim>64</dim>
					<dim>56</dim>
					<dim>56</dim>
				</port>
				<port id="1" precision="FP32">
					<dim>128</dim>
					<dim>64</dim>
					<dim>3</dim>
					<dim>3</dim>
				</port>
			</input>
			<output>
				<port id="2" precision="FP32">
					<dim>-1</dim>
					<dim>128</dim>
					<dim>28</dim>
					<dim>28</dim>
				</port>
			</output>
		</layer>
		<layer id="66" name="Reshape_10377_compressed" type="Const" version="opset1">
			<data element_type="f16" shape="1, 128, 1, 1" offset="462004" size="256" />
			<output>
				<port id="0" precision="FP16">
					<dim>1</dim>
					<dim>128</dim>
					<dim>1</dim>
					<dim>1</dim>
				</port>
			</output>
		</layer>
		<layer id="67" name="Reshape_10377" type="Convert" version="opset1">
			<data destination_type="f32" />
			<rt_info>
				<attribute name="decompression" version="0" />
			</rt_info>
			<input>
				<port id="0" precision="FP16">
					<dim>1</dim>
					<dim>128</dim>
					<dim>1</dim>
					<dim>1</dim>
				</port>
			</input>
			<output>
				<port id="1" precision="FP32">
					<dim>1</dim>
					<dim>128</dim>
					<dim>1</dim>
					<dim>1</dim>
				</port>
			</output>
		</layer>
		<layer id="68" name="/model/feature_extractor/feature_extractor/layer2/layer2.0/conv1/Conv" type="Add" version="opset1">
			<data auto_broadcast="numpy" />
			<input>
				<port id="0" precision="FP32">
					<dim>-1</dim>
					<dim>128</dim>
					<dim>28</dim>
					<dim>28</dim>
				</port>
				<port id="1" precision="FP32">
					<dim>1</dim>
					<dim>128</dim>
					<dim>1</dim>
					<dim>1</dim>
				</port>
			</input>
			<output>
				<port id="2" precision="FP32" names="/model/feature_extractor/feature_extractor/layer2/layer2.0/conv1/Conv_output_0">
					<dim>-1</dim>
					<dim>128</dim>
					<dim>28</dim>
					<dim>28</dim>
				</port>
			</output>
		</layer>
		<layer id="69" name="/model/feature_extractor/feature_extractor/layer2/layer2.0/act1/Relu" type="ReLU" version="opset1">
			<input>
				<port id="0" precision="FP32">
					<dim>-1</dim>
					<dim>128</dim>
					<dim>28</dim>
					<dim>28</dim>
				</port>
			</input>
			<output>
				<port id="1" precision="FP32" names="/model/feature_extractor/feature_extractor/layer2/layer2.0/act1/Relu_output_0">
					<dim>-1</dim>
					<dim>128</dim>
					<dim>28</dim>
					<dim>28</dim>
				</port>
			</output>
		</layer>
		<layer id="70" name="onnx::Conv_519_compressed" type="Const" version="opset1">
			<data element_type="f16" shape="128, 128, 3, 3" offset="462260" size="294912" />
			<output>
				<port id="0" precision="FP16" names="onnx::Conv_519">
					<dim>128</dim>
					<dim>128</dim>
					<dim>3</dim>
					<dim>3</dim>
				</port>
			</output>
		</layer>
		<layer id="71" name="onnx::Conv_519" type="Convert" version="opset1">
			<data destination_type="f32" />
			<rt_info>
				<attribute name="decompression" version="0" />
			</rt_info>
			<input>
				<port id="0" precision="FP16">
					<dim>128</dim>
					<dim>128</dim>
					<dim>3</dim>
					<dim>3</dim>
				</port>
			</input>
			<output>
				<port id="1" precision="FP32">
					<dim>128</dim>
					<dim>128</dim>
					<dim>3</dim>
					<dim>3</dim>
				</port>
			</output>
		</layer>
		<layer id="72" name="/model/feature_extractor/feature_extractor/layer2/layer2.0/conv2/Conv/WithoutBiases" type="Convolution" version="opset1">
			<data strides="1, 1" dilations="1, 1" pads_begin="1, 1" pads_end="1, 1" auto_pad="explicit" />
			<input>
				<port id="0" precision="FP32">
					<dim>-1</dim>
					<dim>128</dim>
					<dim>28</dim>
					<dim>28</dim>
				</port>
				<port id="1" precision="FP32">
					<dim>128</dim>
					<dim>128</dim>
					<dim>3</dim>
					<dim>3</dim>
				</port>
			</input>
			<output>
				<port id="2" precision="FP32">
					<dim>-1</dim>
					<dim>128</dim>
					<dim>28</dim>
					<dim>28</dim>
				</port>
			</output>
		</layer>
		<layer id="73" name="Reshape_10391_compressed" type="Const" version="opset1">
			<data element_type="f16" shape="1, 128, 1, 1" offset="757172" size="256" />
			<output>
				<port id="0" precision="FP16">
					<dim>1</dim>
					<dim>128</dim>
					<dim>1</dim>
					<dim>1</dim>
				</port>
			</output>
		</layer>
		<layer id="74" name="Reshape_10391" type="Convert" version="opset1">
			<data destination_type="f32" />
			<rt_info>
				<attribute name="decompression" version="0" />
			</rt_info>
			<input>
				<port id="0" precision="FP16">
					<dim>1</dim>
					<dim>128</dim>
					<dim>1</dim>
					<dim>1</dim>
				</port>
			</input>
			<output>
				<port id="1" precision="FP32">
					<dim>1</dim>
					<dim>128</dim>
					<dim>1</dim>
					<dim>1</dim>
				</port>
			</output>
		</layer>
		<layer id="75" name="/model/feature_extractor/feature_extractor/layer2/layer2.0/conv2/Conv" type="Add" version="opset1">
			<data auto_broadcast="numpy" />
			<input>
				<port id="0" precision="FP32">
					<dim>-1</dim>
					<dim>128</dim>
					<dim>28</dim>
					<dim>28</dim>
				</port>
				<port id="1" precision="FP32">
					<dim>1</dim>
					<dim>128</dim>
					<dim>1</dim>
					<dim>1</dim>
				</port>
			</input>
			<output>
				<port id="2" precision="FP32" names="/model/feature_extractor/feature_extractor/layer2/layer2.0/conv2/Conv_output_0">
					<dim>-1</dim>
					<dim>128</dim>
					<dim>28</dim>
					<dim>28</dim>
				</port>
			</output>
		</layer>
		<layer id="76" name="onnx::Conv_522_compressed" type="Const" version="opset1">
			<data element_type="f16" shape="128, 64, 1, 1" offset="757428" size="16384" />
			<output>
				<port id="0" precision="FP16" names="onnx::Conv_522">
					<dim>128</dim>
					<dim>64</dim>
					<dim>1</dim>
					<dim>1</dim>
				</port>
			</output>
		</layer>
		<layer id="77" name="onnx::Conv_522" type="Convert" version="opset1">
			<data destination_type="f32" />
			<rt_info>
				<attribute name="decompression" version="0" />
			</rt_info>
			<input>
				<port id="0" precision="FP16">
					<dim>128</dim>
					<dim>64</dim>
					<dim>1</dim>
					<dim>1</dim>
				</port>
			</input>
			<output>
				<port id="1" precision="FP32">
					<dim>128</dim>
					<dim>64</dim>
					<dim>1</dim>
					<dim>1</dim>
				</port>
			</output>
		</layer>
		<layer id="78" name="/model/feature_extractor/feature_extractor/layer2/layer2.0/downsample/downsample.0/Conv/WithoutBiases" type="Convolution" version="opset1">
			<data strides="2, 2" dilations="1, 1" pads_begin="0, 0" pads_end="0, 0" auto_pad="explicit" />
			<input>
				<port id="0" precision="FP32">
					<dim>-1</dim>
					<dim>64</dim>
					<dim>56</dim>
					<dim>56</dim>
				</port>
				<port id="1" precision="FP32">
					<dim>128</dim>
					<dim>64</dim>
					<dim>1</dim>
					<dim>1</dim>
				</port>
			</input>
			<output>
				<port id="2" precision="FP32">
					<dim>-1</dim>
					<dim>128</dim>
					<dim>28</dim>
					<dim>28</dim>
				</port>
			</output>
		</layer>
		<layer id="79" name="Reshape_10404_compressed" type="Const" version="opset1">
			<data element_type="f16" shape="1, 128, 1, 1" offset="773812" size="256" />
			<output>
				<port id="0" precision="FP16">
					<dim>1</dim>
					<dim>128</dim>
					<dim>1</dim>
					<dim>1</dim>
				</port>
			</output>
		</layer>
		<layer id="80" name="Reshape_10404" type="Convert" version="opset1">
			<data destination_type="f32" />
			<rt_info>
				<attribute name="decompression" version="0" />
			</rt_info>
			<input>
				<port id="0" precision="FP16">
					<dim>1</dim>
					<dim>128</dim>
					<dim>1</dim>
					<dim>1</dim>
				</port>
			</input>
			<output>
				<port id="1" precision="FP32">
					<dim>1</dim>
					<dim>128</dim>
					<dim>1</dim>
					<dim>1</dim>
				</port>
			</output>
		</layer>
		<layer id="81" name="/model/feature_extractor/feature_extractor/layer2/layer2.0/downsample/downsample.0/Conv" type="Add" version="opset1">
			<data auto_broadcast="numpy" />
			<input>
				<port id="0" precision="FP32">
					<dim>-1</dim>
					<dim>128</dim>
					<dim>28</dim>
					<dim>28</dim>
				</port>
				<port id="1" precision="FP32">
					<dim>1</dim>
					<dim>128</dim>
					<dim>1</dim>
					<dim>1</dim>
				</port>
			</input>
			<output>
				<port id="2" precision="FP32" names="/model/feature_extractor/feature_extractor/layer2/layer2.0/downsample/downsample.0/Conv_output_0">
					<dim>-1</dim>
					<dim>128</dim>
					<dim>28</dim>
					<dim>28</dim>
				</port>
			</output>
		</layer>
		<layer id="82" name="/model/feature_extractor/feature_extractor/layer2/layer2.0/Add" type="Add" version="opset1">
			<data auto_broadcast="numpy" />
			<input>
				<port id="0" precision="FP32">
					<dim>-1</dim>
					<dim>128</dim>
					<dim>28</dim>
					<dim>28</dim>
				</port>
				<port id="1" precision="FP32">
					<dim>-1</dim>
					<dim>128</dim>
					<dim>28</dim>
					<dim>28</dim>
				</port>
			</input>
			<output>
				<port id="2" precision="FP32" names="/model/feature_extractor/feature_extractor/layer2/layer2.0/Add_output_0">
					<dim>-1</dim>
					<dim>128</dim>
					<dim>28</dim>
					<dim>28</dim>
				</port>
			</output>
		</layer>
		<layer id="83" name="/model/feature_extractor/feature_extractor/layer2/layer2.0/act2/Relu" type="ReLU" version="opset1">
			<input>
				<port id="0" precision="FP32">
					<dim>-1</dim>
					<dim>128</dim>
					<dim>28</dim>
					<dim>28</dim>
				</port>
			</input>
			<output>
				<port id="1" precision="FP32" names="/model/feature_extractor/feature_extractor/layer2/layer2.0/act2/Relu_output_0">
					<dim>-1</dim>
					<dim>128</dim>
					<dim>28</dim>
					<dim>28</dim>
				</port>
			</output>
		</layer>
		<layer id="84" name="onnx::Conv_525_compressed" type="Const" version="opset1">
			<data element_type="f16" shape="128, 128, 3, 3" offset="774068" size="294912" />
			<output>
				<port id="0" precision="FP16" names="onnx::Conv_525">
					<dim>128</dim>
					<dim>128</dim>
					<dim>3</dim>
					<dim>3</dim>
				</port>
			</output>
		</layer>
		<layer id="85" name="onnx::Conv_525" type="Convert" version="opset1">
			<data destination_type="f32" />
			<rt_info>
				<attribute name="decompression" version="0" />
			</rt_info>
			<input>
				<port id="0" precision="FP16">
					<dim>128</dim>
					<dim>128</dim>
					<dim>3</dim>
					<dim>3</dim>
				</port>
			</input>
			<output>
				<port id="1" precision="FP32">
					<dim>128</dim>
					<dim>128</dim>
					<dim>3</dim>
					<dim>3</dim>
				</port>
			</output>
		</layer>
		<layer id="86" name="/model/feature_extractor/feature_extractor/layer2/layer2.1/conv1/Conv/WithoutBiases" type="Convolution" version="opset1">
			<data strides="1, 1" dilations="1, 1" pads_begin="1, 1" pads_end="1, 1" auto_pad="explicit" />
			<input>
				<port id="0" precision="FP32">
					<dim>-1</dim>
					<dim>128</dim>
					<dim>28</dim>
					<dim>28</dim>
				</port>
				<port id="1" precision="FP32">
					<dim>128</dim>
					<dim>128</dim>
					<dim>3</dim>
					<dim>3</dim>
				</port>
			</input>
			<output>
				<port id="2" precision="FP32">
					<dim>-1</dim>
					<dim>128</dim>
					<dim>28</dim>
					<dim>28</dim>
				</port>
			</output>
		</layer>
		<layer id="87" name="Reshape_10419_compressed" type="Const" version="opset1">
			<data element_type="f16" shape="1, 128, 1, 1" offset="1068980" size="256" />
			<output>
				<port id="0" precision="FP16">
					<dim>1</dim>
					<dim>128</dim>
					<dim>1</dim>
					<dim>1</dim>
				</port>
			</output>
		</layer>
		<layer id="88" name="Reshape_10419" type="Convert" version="opset1">
			<data destination_type="f32" />
			<rt_info>
				<attribute name="decompression" version="0" />
			</rt_info>
			<input>
				<port id="0" precision="FP16">
					<dim>1</dim>
					<dim>128</dim>
					<dim>1</dim>
					<dim>1</dim>
				</port>
			</input>
			<output>
				<port id="1" precision="FP32">
					<dim>1</dim>
					<dim>128</dim>
					<dim>1</dim>
					<dim>1</dim>
				</port>
			</output>
		</layer>
		<layer id="89" name="/model/feature_extractor/feature_extractor/layer2/layer2.1/conv1/Conv" type="Add" version="opset1">
			<data auto_broadcast="numpy" />
			<input>
				<port id="0" precision="FP32">
					<dim>-1</dim>
					<dim>128</dim>
					<dim>28</dim>
					<dim>28</dim>
				</port>
				<port id="1" precision="FP32">
					<dim>1</dim>
					<dim>128</dim>
					<dim>1</dim>
					<dim>1</dim>
				</port>
			</input>
			<output>
				<port id="2" precision="FP32" names="/model/feature_extractor/feature_extractor/layer2/layer2.1/conv1/Conv_output_0">
					<dim>-1</dim>
					<dim>128</dim>
					<dim>28</dim>
					<dim>28</dim>
				</port>
			</output>
		</layer>
		<layer id="90" name="/model/feature_extractor/feature_extractor/layer2/layer2.1/act1/Relu" type="ReLU" version="opset1">
			<input>
				<port id="0" precision="FP32">
					<dim>-1</dim>
					<dim>128</dim>
					<dim>28</dim>
					<dim>28</dim>
				</port>
			</input>
			<output>
				<port id="1" precision="FP32" names="/model/feature_extractor/feature_extractor/layer2/layer2.1/act1/Relu_output_0">
					<dim>-1</dim>
					<dim>128</dim>
					<dim>28</dim>
					<dim>28</dim>
				</port>
			</output>
		</layer>
		<layer id="91" name="onnx::Conv_528_compressed" type="Const" version="opset1">
			<data element_type="f16" shape="128, 128, 3, 3" offset="1069236" size="294912" />
			<output>
				<port id="0" precision="FP16" names="onnx::Conv_528">
					<dim>128</dim>
					<dim>128</dim>
					<dim>3</dim>
					<dim>3</dim>
				</port>
			</output>
		</layer>
		<layer id="92" name="onnx::Conv_528" type="Convert" version="opset1">
			<data destination_type="f32" />
			<rt_info>
				<attribute name="decompression" version="0" />
			</rt_info>
			<input>
				<port id="0" precision="FP16">
					<dim>128</dim>
					<dim>128</dim>
					<dim>3</dim>
					<dim>3</dim>
				</port>
			</input>
			<output>
				<port id="1" precision="FP32">
					<dim>128</dim>
					<dim>128</dim>
					<dim>3</dim>
					<dim>3</dim>
				</port>
			</output>
		</layer>
		<layer id="93" name="/model/feature_extractor/feature_extractor/layer2/layer2.1/conv2/Conv/WithoutBiases" type="Convolution" version="opset1">
			<data strides="1, 1" dilations="1, 1" pads_begin="1, 1" pads_end="1, 1" auto_pad="explicit" />
			<input>
				<port id="0" precision="FP32">
					<dim>-1</dim>
					<dim>128</dim>
					<dim>28</dim>
					<dim>28</dim>
				</port>
				<port id="1" precision="FP32">
					<dim>128</dim>
					<dim>128</dim>
					<dim>3</dim>
					<dim>3</dim>
				</port>
			</input>
			<output>
				<port id="2" precision="FP32">
					<dim>-1</dim>
					<dim>128</dim>
					<dim>28</dim>
					<dim>28</dim>
				</port>
			</output>
		</layer>
		<layer id="94" name="Reshape_10433_compressed" type="Const" version="opset1">
			<data element_type="f16" shape="1, 128, 1, 1" offset="1364148" size="256" />
			<output>
				<port id="0" precision="FP16">
					<dim>1</dim>
					<dim>128</dim>
					<dim>1</dim>
					<dim>1</dim>
				</port>
			</output>
		</layer>
		<layer id="95" name="Reshape_10433" type="Convert" version="opset1">
			<data destination_type="f32" />
			<rt_info>
				<attribute name="decompression" version="0" />
			</rt_info>
			<input>
				<port id="0" precision="FP16">
					<dim>1</dim>
					<dim>128</dim>
					<dim>1</dim>
					<dim>1</dim>
				</port>
			</input>
			<output>
				<port id="1" precision="FP32">
					<dim>1</dim>
					<dim>128</dim>
					<dim>1</dim>
					<dim>1</dim>
				</port>
			</output>
		</layer>
		<layer id="96" name="/model/feature_extractor/feature_extractor/layer2/layer2.1/conv2/Conv" type="Add" version="opset1">
			<data auto_broadcast="numpy" />
			<input>
				<port id="0" precision="FP32">
					<dim>-1</dim>
					<dim>128</dim>
					<dim>28</dim>
					<dim>28</dim>
				</port>
				<port id="1" precision="FP32">
					<dim>1</dim>
					<dim>128</dim>
					<dim>1</dim>
					<dim>1</dim>
				</port>
			</input>
			<output>
				<port id="2" precision="FP32" names="/model/feature_extractor/feature_extractor/layer2/layer2.1/conv2/Conv_output_0">
					<dim>-1</dim>
					<dim>128</dim>
					<dim>28</dim>
					<dim>28</dim>
				</port>
			</output>
		</layer>
		<layer id="97" name="/model/feature_extractor/feature_extractor/layer2/layer2.1/Add" type="Add" version="opset1">
			<data auto_broadcast="numpy" />
			<input>
				<port id="0" precision="FP32">
					<dim>-1</dim>
					<dim>128</dim>
					<dim>28</dim>
					<dim>28</dim>
				</port>
				<port id="1" precision="FP32">
					<dim>-1</dim>
					<dim>128</dim>
					<dim>28</dim>
					<dim>28</dim>
				</port>
			</input>
			<output>
				<port id="2" precision="FP32" names="/model/feature_extractor/feature_extractor/layer2/layer2.1/Add_output_0">
					<dim>-1</dim>
					<dim>128</dim>
					<dim>28</dim>
					<dim>28</dim>
				</port>
			</output>
		</layer>
		<layer id="98" name="/model/feature_extractor/feature_extractor/layer2/layer2.1/act2/Relu" type="ReLU" version="opset1">
			<input>
				<port id="0" precision="FP32">
					<dim>-1</dim>
					<dim>128</dim>
					<dim>28</dim>
					<dim>28</dim>
				</port>
			</input>
			<output>
				<port id="1" precision="FP32" names="/model/feature_extractor/feature_extractor/layer2/layer2.1/act2/Relu_output_0">
					<dim>-1</dim>
					<dim>128</dim>
					<dim>28</dim>
					<dim>28</dim>
				</port>
			</output>
		</layer>
		<layer id="99" name="/model/feature_pooler/AveragePool" type="AvgPool" version="opset1">
			<data kernel="3, 3" strides="1, 1" pads_begin="1, 1" pads_end="1, 1" exclude-pad="false" auto_pad="explicit" rounding_type="floor" />
			<input>
				<port id="0" precision="FP32">
					<dim>-1</dim>
					<dim>128</dim>
					<dim>28</dim>
					<dim>28</dim>
				</port>
			</input>
			<output>
				<port id="1" precision="FP32" names="/model/feature_pooler/AveragePool_output_0">
					<dim>-1</dim>
					<dim>128</dim>
					<dim>28</dim>
					<dim>28</dim>
				</port>
			</output>
		</layer>
		<layer id="100" name="onnx::Conv_531_compressed" type="Const" version="opset1">
			<data element_type="f16" shape="256, 128, 3, 3" offset="1364404" size="589824" />
			<output>
				<port id="0" precision="FP16" names="onnx::Conv_531">
					<dim>256</dim>
					<dim>128</dim>
					<dim>3</dim>
					<dim>3</dim>
				</port>
			</output>
		</layer>
		<layer id="101" name="onnx::Conv_531" type="Convert" version="opset1">
			<data destination_type="f32" />
			<rt_info>
				<attribute name="decompression" version="0" />
			</rt_info>
			<input>
				<port id="0" precision="FP16">
					<dim>256</dim>
					<dim>128</dim>
					<dim>3</dim>
					<dim>3</dim>
				</port>
			</input>
			<output>
				<port id="1" precision="FP32">
					<dim>256</dim>
					<dim>128</dim>
					<dim>3</dim>
					<dim>3</dim>
				</port>
			</output>
		</layer>
		<layer id="102" name="/model/feature_extractor/feature_extractor/layer3/layer3.0/conv1/Conv/WithoutBiases" type="Convolution" version="opset1">
			<data strides="2, 2" dilations="1, 1" pads_begin="1, 1" pads_end="1, 1" auto_pad="explicit" />
			<input>
				<port id="0" precision="FP32">
					<dim>-1</dim>
					<dim>128</dim>
					<dim>28</dim>
					<dim>28</dim>
				</port>
				<port id="1" precision="FP32">
					<dim>256</dim>
					<dim>128</dim>
					<dim>3</dim>
					<dim>3</dim>
				</port>
			</input>
			<output>
				<port id="2" precision="FP32">
					<dim>-1</dim>
					<dim>256</dim>
					<dim>14</dim>
					<dim>14</dim>
				</port>
			</output>
		</layer>
		<layer id="103" name="Reshape_10448_compressed" type="Const" version="opset1">
			<data element_type="f16" shape="1, 256, 1, 1" offset="1954228" size="512" />
			<output>
				<port id="0" precision="FP16">
					<dim>1</dim>
					<dim>256</dim>
					<dim>1</dim>
					<dim>1</dim>
				</port>
			</output>
		</layer>
		<layer id="104" name="Reshape_10448" type="Convert" version="opset1">
			<data destination_type="f32" />
			<rt_info>
				<attribute name="decompression" version="0" />
			</rt_info>
			<input>
				<port id="0" precision="FP16">
					<dim>1</dim>
					<dim>256</dim>
					<dim>1</dim>
					<dim>1</dim>
				</port>
			</input>
			<output>
				<port id="1" precision="FP32">
					<dim>1</dim>
					<dim>256</dim>
					<dim>1</dim>
					<dim>1</dim>
				</port>
			</output>
		</layer>
		<layer id="105" name="/model/feature_extractor/feature_extractor/layer3/layer3.0/conv1/Conv" type="Add" version="opset1">
			<data auto_broadcast="numpy" />
			<input>
				<port id="0" precision="FP32">
					<dim>-1</dim>
					<dim>256</dim>
					<dim>14</dim>
					<dim>14</dim>
				</port>
				<port id="1" precision="FP32">
					<dim>1</dim>
					<dim>256</dim>
					<dim>1</dim>
					<dim>1</dim>
				</port>
			</input>
			<output>
				<port id="2" precision="FP32" names="/model/feature_extractor/feature_extractor/layer3/layer3.0/conv1/Conv_output_0">
					<dim>-1</dim>
					<dim>256</dim>
					<dim>14</dim>
					<dim>14</dim>
				</port>
			</output>
		</layer>
		<layer id="106" name="/model/feature_extractor/feature_extractor/layer3/layer3.0/act1/Relu" type="ReLU" version="opset1">
			<input>
				<port id="0" precision="FP32">
					<dim>-1</dim>
					<dim>256</dim>
					<dim>14</dim>
					<dim>14</dim>
				</port>
			</input>
			<output>
				<port id="1" precision="FP32" names="/model/feature_extractor/feature_extractor/layer3/layer3.0/act1/Relu_output_0">
					<dim>-1</dim>
					<dim>256</dim>
					<dim>14</dim>
					<dim>14</dim>
				</port>
			</output>
		</layer>
		<layer id="107" name="onnx::Conv_534_compressed" type="Const" version="opset1">
			<data element_type="f16" shape="256, 256, 3, 3" offset="1954740" size="1179648" />
			<output>
				<port id="0" precision="FP16" names="onnx::Conv_534">
					<dim>256</dim>
					<dim>256</dim>
					<dim>3</dim>
					<dim>3</dim>
				</port>
			</output>
		</layer>
		<layer id="108" name="onnx::Conv_534" type="Convert" version="opset1">
			<data destination_type="f32" />
			<rt_info>
				<attribute name="decompression" version="0" />
			</rt_info>
			<input>
				<port id="0" precision="FP16">
					<dim>256</dim>
					<dim>256</dim>
					<dim>3</dim>
					<dim>3</dim>
				</port>
			</input>
			<output>
				<port id="1" precision="FP32">
					<dim>256</dim>
					<dim>256</dim>
					<dim>3</dim>
					<dim>3</dim>
				</port>
			</output>
		</layer>
		<layer id="109" name="/model/feature_extractor/feature_extractor/layer3/layer3.0/conv2/Conv/WithoutBiases" type="Convolution" version="opset1">
			<data strides="1, 1" dilations="1, 1" pads_begin="1, 1" pads_end="1, 1" auto_pad="explicit" />
			<input>
				<port id="0" precision="FP32">
					<dim>-1</dim>
					<dim>256</dim>
					<dim>14</dim>
					<dim>14</dim>
				</port>
				<port id="1" precision="FP32">
					<dim>256</dim>
					<dim>256</dim>
					<dim>3</dim>
					<dim>3</dim>
				</port>
			</input>
			<output>
				<port id="2" precision="FP32">
					<dim>-1</dim>
					<dim>256</dim>
					<dim>14</dim>
					<dim>14</dim>
				</port>
			</output>
		</layer>
		<layer id="110" name="Reshape_10462_compressed" type="Const" version="opset1">
			<data element_type="f16" shape="1, 256, 1, 1" offset="3134388" size="512" />
			<output>
				<port id="0" precision="FP16">
					<dim>1</dim>
					<dim>256</dim>
					<dim>1</dim>
					<dim>1</dim>
				</port>
			</output>
		</layer>
		<layer id="111" name="Reshape_10462" type="Convert" version="opset1">
			<data destination_type="f32" />
			<rt_info>
				<attribute name="decompression" version="0" />
			</rt_info>
			<input>
				<port id="0" precision="FP16">
					<dim>1</dim>
					<dim>256</dim>
					<dim>1</dim>
					<dim>1</dim>
				</port>
			</input>
			<output>
				<port id="1" precision="FP32">
					<dim>1</dim>
					<dim>256</dim>
					<dim>1</dim>
					<dim>1</dim>
				</port>
			</output>
		</layer>
		<layer id="112" name="/model/feature_extractor/feature_extractor/layer3/layer3.0/conv2/Conv" type="Add" version="opset1">
			<data auto_broadcast="numpy" />
			<input>
				<port id="0" precision="FP32">
					<dim>-1</dim>
					<dim>256</dim>
					<dim>14</dim>
					<dim>14</dim>
				</port>
				<port id="1" precision="FP32">
					<dim>1</dim>
					<dim>256</dim>
					<dim>1</dim>
					<dim>1</dim>
				</port>
			</input>
			<output>
				<port id="2" precision="FP32" names="/model/feature_extractor/feature_extractor/layer3/layer3.0/conv2/Conv_output_0">
					<dim>-1</dim>
					<dim>256</dim>
					<dim>14</dim>
					<dim>14</dim>
				</port>
			</output>
		</layer>
		<layer id="113" name="onnx::Conv_537_compressed" type="Const" version="opset1">
			<data element_type="f16" shape="256, 128, 1, 1" offset="3134900" size="65536" />
			<output>
				<port id="0" precision="FP16" names="onnx::Conv_537">
					<dim>256</dim>
					<dim>128</dim>
					<dim>1</dim>
					<dim>1</dim>
				</port>
			</output>
		</layer>
		<layer id="114" name="onnx::Conv_537" type="Convert" version="opset1">
			<data destination_type="f32" />
			<rt_info>
				<attribute name="decompression" version="0" />
			</rt_info>
			<input>
				<port id="0" precision="FP16">
					<dim>256</dim>
					<dim>128</dim>
					<dim>1</dim>
					<dim>1</dim>
				</port>
			</input>
			<output>
				<port id="1" precision="FP32">
					<dim>256</dim>
					<dim>128</dim>
					<dim>1</dim>
					<dim>1</dim>
				</port>
			</output>
		</layer>
		<layer id="115" name="/model/feature_extractor/feature_extractor/layer3/layer3.0/downsample/downsample.0/Conv/WithoutBiases" type="Convolution" version="opset1">
			<data strides="2, 2" dilations="1, 1" pads_begin="0, 0" pads_end="0, 0" auto_pad="explicit" />
			<input>
				<port id="0" precision="FP32">
					<dim>-1</dim>
					<dim>128</dim>
					<dim>28</dim>
					<dim>28</dim>
				</port>
				<port id="1" precision="FP32">
					<dim>256</dim>
					<dim>128</dim>
					<dim>1</dim>
					<dim>1</dim>
				</port>
			</input>
			<output>
				<port id="2" precision="FP32">
					<dim>-1</dim>
					<dim>256</dim>
					<dim>14</dim>
					<dim>14</dim>
				</port>
			</output>
		</layer>
		<layer id="116" name="Reshape_10475_compressed" type="Const" version="opset1">
			<data element_type="f16" shape="1, 256, 1, 1" offset="3200436" size="512" />
			<output>
				<port id="0" precision="FP16">
					<dim>1</dim>
					<dim>256</dim>
					<dim>1</dim>
					<dim>1</dim>
				</port>
			</output>
		</layer>
		<layer id="117" name="Reshape_10475" type="Convert" version="opset1">
			<data destination_type="f32" />
			<rt_info>
				<attribute name="decompression" version="0" />
			</rt_info>
			<input>
				<port id="0" precision="FP16">
					<dim>1</dim>
					<dim>256</dim>
					<dim>1</dim>
					<dim>1</dim>
				</port>
			</input>
			<output>
				<port id="1" precision="FP32">
					<dim>1</dim>
					<dim>256</dim>
					<dim>1</dim>
					<dim>1</dim>
				</port>
			</output>
		</layer>
		<layer id="118" name="/model/feature_extractor/feature_extractor/layer3/layer3.0/downsample/downsample.0/Conv" type="Add" version="opset1">
			<data auto_broadcast="numpy" />
			<input>
				<port id="0" precision="FP32">
					<dim>-1</dim>
					<dim>256</dim>
					<dim>14</dim>
					<dim>14</dim>
				</port>
				<port id="1" precision="FP32">
					<dim>1</dim>
					<dim>256</dim>
					<dim>1</dim>
					<dim>1</dim>
				</port>
			</input>
			<output>
				<port id="2" precision="FP32" names="/model/feature_extractor/feature_extractor/layer3/layer3.0/downsample/downsample.0/Conv_output_0">
					<dim>-1</dim>
					<dim>256</dim>
					<dim>14</dim>
					<dim>14</dim>
				</port>
			</output>
		</layer>
		<layer id="119" name="/model/feature_extractor/feature_extractor/layer3/layer3.0/Add" type="Add" version="opset1">
			<data auto_broadcast="numpy" />
			<input>
				<port id="0" precision="FP32">
					<dim>-1</dim>
					<dim>256</dim>
					<dim>14</dim>
					<dim>14</dim>
				</port>
				<port id="1" precision="FP32">
					<dim>-1</dim>
					<dim>256</dim>
					<dim>14</dim>
					<dim>14</dim>
				</port>
			</input>
			<output>
				<port id="2" precision="FP32" names="/model/feature_extractor/feature_extractor/layer3/layer3.0/Add_output_0">
					<dim>-1</dim>
					<dim>256</dim>
					<dim>14</dim>
					<dim>14</dim>
				</port>
			</output>
		</layer>
		<layer id="120" name="/model/feature_extractor/feature_extractor/layer3/layer3.0/act2/Relu" type="ReLU" version="opset1">
			<input>
				<port id="0" precision="FP32">
					<dim>-1</dim>
					<dim>256</dim>
					<dim>14</dim>
					<dim>14</dim>
				</port>
			</input>
			<output>
				<port id="1" precision="FP32" names="/model/feature_extractor/feature_extractor/layer3/layer3.0/act2/Relu_output_0">
					<dim>-1</dim>
					<dim>256</dim>
					<dim>14</dim>
					<dim>14</dim>
				</port>
			</output>
		</layer>
		<layer id="121" name="onnx::Conv_540_compressed" type="Const" version="opset1">
			<data element_type="f16" shape="256, 256, 3, 3" offset="3200948" size="1179648" />
			<output>
				<port id="0" precision="FP16" names="onnx::Conv_540">
					<dim>256</dim>
					<dim>256</dim>
					<dim>3</dim>
					<dim>3</dim>
				</port>
			</output>
		</layer>
		<layer id="122" name="onnx::Conv_540" type="Convert" version="opset1">
			<data destination_type="f32" />
			<rt_info>
				<attribute name="decompression" version="0" />
			</rt_info>
			<input>
				<port id="0" precision="FP16">
					<dim>256</dim>
					<dim>256</dim>
					<dim>3</dim>
					<dim>3</dim>
				</port>
			</input>
			<output>
				<port id="1" precision="FP32">
					<dim>256</dim>
					<dim>256</dim>
					<dim>3</dim>
					<dim>3</dim>
				</port>
			</output>
		</layer>
		<layer id="123" name="/model/feature_extractor/feature_extractor/layer3/layer3.1/conv1/Conv/WithoutBiases" type="Convolution" version="opset1">
			<data strides="1, 1" dilations="1, 1" pads_begin="1, 1" pads_end="1, 1" auto_pad="explicit" />
			<input>
				<port id="0" precision="FP32">
					<dim>-1</dim>
					<dim>256</dim>
					<dim>14</dim>
					<dim>14</dim>
				</port>
				<port id="1" precision="FP32">
					<dim>256</dim>
					<dim>256</dim>
					<dim>3</dim>
					<dim>3</dim>
				</port>
			</input>
			<output>
				<port id="2" precision="FP32">
					<dim>-1</dim>
					<dim>256</dim>
					<dim>14</dim>
					<dim>14</dim>
				</port>
			</output>
		</layer>
		<layer id="124" name="Reshape_10490_compressed" type="Const" version="opset1">
			<data element_type="f16" shape="1, 256, 1, 1" offset="4380596" size="512" />
			<output>
				<port id="0" precision="FP16">
					<dim>1</dim>
					<dim>256</dim>
					<dim>1</dim>
					<dim>1</dim>
				</port>
			</output>
		</layer>
		<layer id="125" name="Reshape_10490" type="Convert" version="opset1">
			<data destination_type="f32" />
			<rt_info>
				<attribute name="decompression" version="0" />
			</rt_info>
			<input>
				<port id="0" precision="FP16">
					<dim>1</dim>
					<dim>256</dim>
					<dim>1</dim>
					<dim>1</dim>
				</port>
			</input>
			<output>
				<port id="1" precision="FP32">
					<dim>1</dim>
					<dim>256</dim>
					<dim>1</dim>
					<dim>1</dim>
				</port>
			</output>
		</layer>
		<layer id="126" name="/model/feature_extractor/feature_extractor/layer3/layer3.1/conv1/Conv" type="Add" version="opset1">
			<data auto_broadcast="numpy" />
			<input>
				<port id="0" precision="FP32">
					<dim>-1</dim>
					<dim>256</dim>
					<dim>14</dim>
					<dim>14</dim>
				</port>
				<port id="1" precision="FP32">
					<dim>1</dim>
					<dim>256</dim>
					<dim>1</dim>
					<dim>1</dim>
				</port>
			</input>
			<output>
				<port id="2" precision="FP32" names="/model/feature_extractor/feature_extractor/layer3/layer3.1/conv1/Conv_output_0">
					<dim>-1</dim>
					<dim>256</dim>
					<dim>14</dim>
					<dim>14</dim>
				</port>
			</output>
		</layer>
		<layer id="127" name="/model/feature_extractor/feature_extractor/layer3/layer3.1/act1/Relu" type="ReLU" version="opset1">
			<input>
				<port id="0" precision="FP32">
					<dim>-1</dim>
					<dim>256</dim>
					<dim>14</dim>
					<dim>14</dim>
				</port>
			</input>
			<output>
				<port id="1" precision="FP32" names="/model/feature_extractor/feature_extractor/layer3/layer3.1/act1/Relu_output_0">
					<dim>-1</dim>
					<dim>256</dim>
					<dim>14</dim>
					<dim>14</dim>
				</port>
			</output>
		</layer>
		<layer id="128" name="onnx::Conv_543_compressed" type="Const" version="opset1">
			<data element_type="f16" shape="256, 256, 3, 3" offset="4381108" size="1179648" />
			<output>
				<port id="0" precision="FP16" names="onnx::Conv_543">
					<dim>256</dim>
					<dim>256</dim>
					<dim>3</dim>
					<dim>3</dim>
				</port>
			</output>
		</layer>
		<layer id="129" name="onnx::Conv_543" type="Convert" version="opset1">
			<data destination_type="f32" />
			<rt_info>
				<attribute name="decompression" version="0" />
			</rt_info>
			<input>
				<port id="0" precision="FP16">
					<dim>256</dim>
					<dim>256</dim>
					<dim>3</dim>
					<dim>3</dim>
				</port>
			</input>
			<output>
				<port id="1" precision="FP32">
					<dim>256</dim>
					<dim>256</dim>
					<dim>3</dim>
					<dim>3</dim>
				</port>
			</output>
		</layer>
		<layer id="130" name="/model/feature_extractor/feature_extractor/layer3/layer3.1/conv2/Conv/WithoutBiases" type="Convolution" version="opset1">
			<data strides="1, 1" dilations="1, 1" pads_begin="1, 1" pads_end="1, 1" auto_pad="explicit" />
			<input>
				<port id="0" precision="FP32">
					<dim>-1</dim>
					<dim>256</dim>
					<dim>14</dim>
					<dim>14</dim>
				</port>
				<port id="1" precision="FP32">
					<dim>256</dim>
					<dim>256</dim>
					<dim>3</dim>
					<dim>3</dim>
				</port>
			</input>
			<output>
				<port id="2" precision="FP32">
					<dim>-1</dim>
					<dim>256</dim>
					<dim>14</dim>
					<dim>14</dim>
				</port>
			</output>
		</layer>
		<layer id="131" name="Reshape_10504_compressed" type="Const" version="opset1">
			<data element_type="f16" shape="1, 256, 1, 1" offset="5560756" size="512" />
			<output>
				<port id="0" precision="FP16">
					<dim>1</dim>
					<dim>256</dim>
					<dim>1</dim>
					<dim>1</dim>
				</port>
			</output>
		</layer>
		<layer id="132" name="Reshape_10504" type="Convert" version="opset1">
			<data destination_type="f32" />
			<rt_info>
				<attribute name="decompression" version="0" />
			</rt_info>
			<input>
				<port id="0" precision="FP16">
					<dim>1</dim>
					<dim>256</dim>
					<dim>1</dim>
					<dim>1</dim>
				</port>
			</input>
			<output>
				<port id="1" precision="FP32">
					<dim>1</dim>
					<dim>256</dim>
					<dim>1</dim>
					<dim>1</dim>
				</port>
			</output>
		</layer>
		<layer id="133" name="/model/feature_extractor/feature_extractor/layer3/layer3.1/conv2/Conv" type="Add" version="opset1">
			<data auto_broadcast="numpy" />
			<input>
				<port id="0" precision="FP32">
					<dim>-1</dim>
					<dim>256</dim>
					<dim>14</dim>
					<dim>14</dim>
				</port>
				<port id="1" precision="FP32">
					<dim>1</dim>
					<dim>256</dim>
					<dim>1</dim>
					<dim>1</dim>
				</port>
			</input>
			<output>
				<port id="2" precision="FP32" names="/model/feature_extractor/feature_extractor/layer3/layer3.1/conv2/Conv_output_0">
					<dim>-1</dim>
					<dim>256</dim>
					<dim>14</dim>
					<dim>14</dim>
				</port>
			</output>
		</layer>
		<layer id="134" name="/model/feature_extractor/feature_extractor/layer3/layer3.1/Add" type="Add" version="opset1">
			<data auto_broadcast="numpy" />
			<input>
				<port id="0" precision="FP32">
					<dim>-1</dim>
					<dim>256</dim>
					<dim>14</dim>
					<dim>14</dim>
				</port>
				<port id="1" precision="FP32">
					<dim>-1</dim>
					<dim>256</dim>
					<dim>14</dim>
					<dim>14</dim>
				</port>
			</input>
			<output>
				<port id="2" precision="FP32" names="/model/feature_extractor/feature_extractor/layer3/layer3.1/Add_output_0">
					<dim>-1</dim>
					<dim>256</dim>
					<dim>14</dim>
					<dim>14</dim>
				</port>
			</output>
		</layer>
		<layer id="135" name="/model/feature_extractor/feature_extractor/layer3/layer3.1/act2/Relu" type="ReLU" version="opset1">
			<input>
				<port id="0" precision="FP32">
					<dim>-1</dim>
					<dim>256</dim>
					<dim>14</dim>
					<dim>14</dim>
				</port>
			</input>
			<output>
				<port id="1" precision="FP32" names="/model/feature_extractor/feature_extractor/layer3/layer3.1/act2/Relu_output_0">
					<dim>-1</dim>
					<dim>256</dim>
					<dim>14</dim>
					<dim>14</dim>
				</port>
			</output>
		</layer>
		<layer id="136" name="/model/feature_pooler_1/AveragePool" type="AvgPool" version="opset1">
			<data kernel="3, 3" strides="1, 1" pads_begin="1, 1" pads_end="1, 1" exclude-pad="false" auto_pad="explicit" rounding_type="floor" />
			<input>
				<port id="0" precision="FP32">
					<dim>-1</dim>
					<dim>256</dim>
					<dim>14</dim>
					<dim>14</dim>
				</port>
			</input>
			<output>
				<port id="1" precision="FP32" names="/model/feature_pooler_1/AveragePool_output_0">
					<dim>-1</dim>
					<dim>256</dim>
					<dim>14</dim>
					<dim>14</dim>
				</port>
			</output>
		</layer>
		<layer id="137" name="/model/Shape_4" type="ShapeOf" version="opset3">
			<data output_type="i64" />
			<input>
				<port id="0" precision="FP32">
					<dim>-1</dim>
					<dim>256</dim>
					<dim>14</dim>
					<dim>14</dim>
				</port>
			</input>
			<output>
				<port id="1" precision="I64" names="/model/Shape_4_output_0">
					<dim>4</dim>
				</port>
			</output>
		</layer>
		<layer id="138" name="/model/Constant_5" type="Const" version="opset1">
			<data element_type="i64" shape="1" offset="32" size="8" />
			<rt_info>
				<attribute name="precise" version="0" />
			</rt_info>
			<output>
				<port id="0" precision="I64" names="/model/Constant_5_output_0">
					<dim>1</dim>
				</port>
			</output>
		</layer>
		<layer id="139" name="/model/Constant_6" type="Const" version="opset1">
			<data element_type="i64" shape="1" offset="40" size="8" />
			<rt_info>
				<attribute name="precise" version="0" />
			</rt_info>
			<output>
				<port id="0" precision="I64" names="/model/Constant_6_output_0">
					<dim>1</dim>
				</port>
			</output>
		</layer>
		<layer id="140" name="Broadcast_10529" type="Const" version="opset1">
			<data element_type="i64" shape="1" offset="48" size="8" />
			<rt_info>
				<attribute name="precise" version="0" />
			</rt_info>
			<output>
				<port id="0" precision="I64">
					<dim>1</dim>
				</port>
			</output>
		</layer>
		<layer id="141" name="/model/Constant_4" type="Const" version="opset1">
			<data element_type="i64" shape="1" offset="32" size="8" />
			<rt_info>
				<attribute name="precise" version="0" />
			</rt_info>
			<output>
				<port id="0" precision="I64" names="/model/Constant_4_output_0">
					<dim>1</dim>
				</port>
			</output>
		</layer>
		<layer id="142" name="/model/Slice" type="Slice" version="opset8">
			<input>
				<port id="0" precision="I64">
					<dim>4</dim>
				</port>
				<port id="1" precision="I64">
					<dim>1</dim>
				</port>
				<port id="2" precision="I64">
					<dim>1</dim>
				</port>
				<port id="3" precision="I64">
					<dim>1</dim>
				</port>
				<port id="4" precision="I64">
					<dim>1</dim>
				</port>
			</input>
			<output>
				<port id="5" precision="I64" names="/model/Slice_output_0">
					<dim>2</dim>
				</port>
			</output>
		</layer>
		<layer id="143" name="/model/Shape_2" type="ShapeOf" version="opset3">
			<data output_type="i64" />
			<input>
				<port id="0" precision="FP32">
					<dim>-1</dim>
					<dim>128</dim>
					<dim>28</dim>
					<dim>28</dim>
				</port>
			</input>
			<output>
				<port id="1" precision="I64" names="/model/Shape_2_output_0,/model/Shape_3_output_0">
					<dim>4</dim>
				</port>
			</output>
		</layer>
		<layer id="144" name="Constant_13702" type="Const" version="opset1">
			<data element_type="i64" shape="2" offset="152" size="16" />
			<rt_info>
				<attribute name="precise" version="0" />
			</rt_info>
			<output>
				<port id="0" precision="I64">
					<dim>2</dim>
				</port>
			</output>
		</layer>
		<layer id="145" name="Constant_13703" type="Const" version="opset1">
			<data element_type="i64" shape="" offset="32" size="8" />
			<rt_info>
				<attribute name="precise" version="0" />
			</rt_info>
			<output>
				<port id="0" precision="I64" />
			</output>
		</layer>
		<layer id="146" name="Gather_13704" type="Gather" version="opset8">
			<data batch_dims="0" />
			<input>
				<port id="0" precision="I64">
					<dim>4</dim>
				</port>
				<port id="1" precision="I64">
					<dim>2</dim>
				</port>
				<port id="2" precision="I64" />
			</input>
			<output>
				<port id="3" precision="I64" names="/model/Cast_output_0,/model/Concat_output_0">
					<dim>2</dim>
				</port>
			</output>
		</layer>
		<layer id="147" name="/model/Concat_1" type="Concat" version="opset1">
			<data axis="0" />
			<input>
				<port id="0" precision="I64">
					<dim>2</dim>
				</port>
				<port id="1" precision="I64">
					<dim>2</dim>
				</port>
			</input>
			<output>
				<port id="2" precision="I64" names="/model/Concat_1_output_0">
					<dim>4</dim>
				</port>
			</output>
		</layer>
		<layer id="148" name="/model/Resize" type="Interpolate" version="opset11">
			<data mode="linear_onnx" shape_calculation_mode="sizes" coordinate_transformation_mode="half_pixel" nearest_mode="floor" antialias="false" pads_begin="0, 0, 0, 0" pads_end="0, 0, 0, 0" cube_coeff="-0.75" />
			<input>
				<port id="0" precision="FP32">
					<dim>-1</dim>
					<dim>256</dim>
					<dim>14</dim>
					<dim>14</dim>
				</port>
				<port id="1" precision="I64">
					<dim>4</dim>
				</port>
			</input>
			<output>
				<port id="2" precision="FP32" names="/model/Resize_output_0">
					<dim>-1</dim>
					<dim>256</dim>
					<dim>28</dim>
					<dim>28</dim>
				</port>
			</output>
		</layer>
		<layer id="149" name="/model/Concat_2" type="Concat" version="opset1">
			<data axis="1" />
			<input>
				<port id="0" precision="FP32">
					<dim>-1</dim>
					<dim>128</dim>
					<dim>28</dim>
					<dim>28</dim>
				</port>
				<port id="1" precision="FP32">
					<dim>-1</dim>
					<dim>256</dim>
					<dim>28</dim>
					<dim>28</dim>
				</port>
			</input>
			<output>
				<port id="2" precision="FP32" names="/model/Concat_2_output_0">
					<dim>-1</dim>
					<dim>384</dim>
					<dim>28</dim>
					<dim>28</dim>
				</port>
			</output>
		</layer>
		<layer id="150" name="Constant_10562" type="Const" version="opset1">
			<data element_type="i64" shape="4" offset="5561268" size="32" />
			<output>
				<port id="0" precision="I64">
					<dim>4</dim>
				</port>
			</output>
		</layer>
		<layer id="151" name="/model/Transpose" type="Transpose" version="opset1">
			<input>
				<port id="0" precision="FP32">
					<dim>-1</dim>
					<dim>384</dim>
					<dim>28</dim>
					<dim>28</dim>
				</port>
				<port id="1" precision="I64">
					<dim>4</dim>
				</port>
			</input>
			<output>
				<port id="2" precision="FP32" names="/model/Transpose_output_0">
					<dim>-1</dim>
					<dim>28</dim>
					<dim>28</dim>
					<dim>384</dim>
				</port>
			</output>
		</layer>
		<layer id="152" name="Constant_14452" type="Const" version="opset1">
			<data element_type="i64" shape="2" offset="5561300" size="16" />
			<rt_info>
				<attribute name="precise" version="0" />
			</rt_info>
			<output>
				<port id="0" precision="I64">
					<dim>2</dim>
				</port>
			</output>
		</layer>
		<layer id="153" name="/model/Reshape" type="Reshape" version="opset1">
			<data special_zero="true" />
			<input>
				<port id="0" precision="FP32">
					<dim>-1</dim>
					<dim>28</dim>
					<dim>28</dim>
					<dim>384</dim>
				</port>
				<port id="1" precision="I64">
					<dim>2</dim>
				</port>
			</input>
			<output>
				<port id="2" precision="FP32" names="/model/Reshape_output_0">
					<dim>-1</dim>
					<dim>384</dim>
				</port>
			</output>
		</layer>
		<layer id="154" name="Constant_14215_compressed" type="Const" version="opset1">
			<data element_type="f16" shape="1, 1" offset="5561316" size="2" />
			<output>
				<port id="0" precision="FP16">
					<dim>1</dim>
					<dim>1</dim>
				</port>
			</output>
		</layer>
		<layer id="155" name="Constant_14215" type="Convert" version="opset1">
			<data destination_type="f32" />
			<rt_info>
				<attribute name="decompression" version="0" />
			</rt_info>
			<input>
				<port id="0" precision="FP16">
					<dim>1</dim>
					<dim>1</dim>
				</port>
			</input>
			<output>
				<port id="1" precision="FP32">
					<dim>1</dim>
					<dim>1</dim>
				</port>
			</output>
		</layer>
		<layer id="156" name="/model/Pow" type="Power" version="opset1">
			<data auto_broadcast="numpy" />
			<input>
				<port id="0" precision="FP32">
					<dim>-1</dim>
					<dim>384</dim>
				</port>
				<port id="1" precision="FP32">
					<dim>1</dim>
					<dim>1</dim>
				</port>
			</input>
			<output>
				<port id="2" precision="FP32" names="/model/Pow_output_0">
					<dim>-1</dim>
					<dim>384</dim>
				</port>
			</output>
		</layer>
		<layer id="157" name="Constant_244" type="Const" version="opset1">
			<data element_type="i64" shape="1" offset="5561318" size="8" />
			<output>
				<port id="0" precision="I64" names="onnx::ReduceSum_274">
					<dim>1</dim>
				</port>
			</output>
		</layer>
		<layer id="158" name="/model/ReduceSum" type="ReduceSum" version="opset1">
			<data keep_dims="true" />
			<input>
				<port id="0" precision="FP32">
					<dim>-1</dim>
					<dim>384</dim>
				</port>
				<port id="1" precision="I64">
					<dim>1</dim>
				</port>
			</input>
			<output>
				<port id="2" precision="FP32" names="/model/ReduceSum_output_0">
					<dim>-1</dim>
					<dim>1</dim>
				</port>
			</output>
		</layer>
		<layer id="159" name="Multiply_14122_compressed" type="Const" version="opset1">
			<data element_type="f16" shape="4312, 384" offset="5561326" size="3311616" />
			<output>
				<port id="0" precision="FP16">
					<dim>4312</dim>
					<dim>384</dim>
				</port>
			</output>
		</layer>
		<layer id="160" name="Multiply_14122" type="Convert" version="opset1">
			<data destination_type="f32" />
			<rt_info>
				<attribute name="decompression" version="0" />
			</rt_info>
			<input>
				<port id="0" precision="FP16">
					<dim>4312</dim>
					<dim>384</dim>
				</port>
			</input>
			<output>
				<port id="1" precision="FP32">
					<dim>4312</dim>
					<dim>384</dim>
				</port>
			</output>
		</layer>
		<layer id="161" name="/model/Mul" type="MatMul" version="opset1">
			<data transpose_a="false" transpose_b="true" />
			<input>
				<port id="0" precision="FP32">
					<dim>-1</dim>
					<dim>384</dim>
				</port>
				<port id="1" precision="FP32">
					<dim>4312</dim>
					<dim>384</dim>
				</port>
			</input>
			<output>
				<port id="2" precision="FP32" names="/model/Mul_output_0">
					<dim>-1</dim>
					<dim>4312</dim>
				</port>
			</output>
		</layer>
		<layer id="162" name="/model/Sub" type="Subtract" version="opset1">
			<data auto_broadcast="numpy" />
			<input>
				<port id="0" precision="FP32">
					<dim>-1</dim>
					<dim>1</dim>
				</port>
				<port id="1" precision="FP32">
					<dim>-1</dim>
					<dim>4312</dim>
				</port>
			</input>
			<output>
				<port id="2" precision="FP32" names="/model/Sub_output_0">
					<dim>-1</dim>
					<dim>4312</dim>
				</port>
			</output>
		</layer>
		<layer id="163" name="/model/Transpose_1_compressed" type="Const" version="opset1">
			<data element_type="f16" shape="1, 4312" offset="8872942" size="8624" />
			<output>
				<port id="0" precision="FP16" names="/model/Transpose_1_output_0">
					<dim>1</dim>
					<dim>4312</dim>
				</port>
			</output>
		</layer>
		<layer id="164" name="/model/Transpose_1" type="Convert" version="opset1">
			<data destination_type="f32" />
			<rt_info>
				<attribute name="decompression" version="0" />
			</rt_info>
			<input>
				<port id="0" precision="FP16">
					<dim>1</dim>
					<dim>4312</dim>
				</port>
			</input>
			<output>
				<port id="1" precision="FP32">
					<dim>1</dim>
					<dim>4312</dim>
				</port>
			</output>
		</layer>
		<layer id="165" name="/model/Add" type="Add" version="opset1">
			<data auto_broadcast="numpy" />
			<input>
				<port id="0" precision="FP32">
					<dim>-1</dim>
					<dim>4312</dim>
				</port>
				<port id="1" precision="FP32">
					<dim>1</dim>
					<dim>4312</dim>
				</port>
			</input>
			<output>
				<port id="2" precision="FP32" names="/model/Add_output_0">
					<dim>-1</dim>
					<dim>4312</dim>
				</port>
			</output>
		</layer>
		<layer id="166" name="/model/Clip" type="Clamp" version="opset1">
			<data min="0" max="3.4028234663852886e+38" />
			<input>
				<port id="0" precision="FP32">
					<dim>-1</dim>
					<dim>4312</dim>
				</port>
			</input>
			<output>
				<port id="1" precision="FP32" names="/model/Clip_output_0">
					<dim>-1</dim>
					<dim>4312</dim>
				</port>
			</output>
		</layer>
		<layer id="167" name="/model/Sqrt" type="Sqrt" version="opset1">
			<input>
				<port id="0" precision="FP32">
					<dim>-1</dim>
					<dim>4312</dim>
				</port>
			</input>
			<output>
				<port id="1" precision="FP32" names="/model/Sqrt_output_0">
					<dim>-1</dim>
					<dim>4312</dim>
				</port>
			</output>
		</layer>
		<layer id="168" name="Constant_10589" type="Const" version="opset1">
			<data element_type="i64" shape="1" offset="48" size="8" />
			<output>
				<port id="0" precision="I64">
					<dim>1</dim>
				</port>
			</output>
		</layer>
		<layer id="169" name="/model/ReduceMin" type="ReduceMin" version="opset1">
			<data keep_dims="false" />
			<input>
				<port id="0" precision="FP32">
					<dim>-1</dim>
					<dim>4312</dim>
				</port>
				<port id="1" precision="I64">
					<dim>1</dim>
				</port>
			</input>
			<output>
				<port id="2" precision="FP32" names="/model/ReduceMin_output_0">
					<dim>-1</dim>
				</port>
			</output>
		</layer>
		<layer id="170" name="Constant_14409" type="Const" version="opset1">
			<data element_type="i64" shape="1" offset="32" size="8" />
			<rt_info>
				<attribute name="precise" version="0" />
			</rt_info>
			<output>
				<port id="0" precision="I64">
					<dim>1</dim>
				</port>
			</output>
		</layer>
		<layer id="171" name="Constant_14410" type="Const" version="opset1">
			<data element_type="i64" shape="" offset="32" size="8" />
			<rt_info>
				<attribute name="precise" version="0" />
			</rt_info>
			<output>
				<port id="0" precision="I64" />
			</output>
		</layer>
		<layer id="172" name="Gather_14411" type="Gather" version="opset8">
			<data batch_dims="0" />
			<input>
				<port id="0" precision="I64">
					<dim>4</dim>
				</port>
				<port id="1" precision="I64">
					<dim>1</dim>
				</port>
				<port id="2" precision="I64" />
			</input>
			<output>
				<port id="3" precision="I64" names="/model/Gather_4_output_0,/model/Shape_12_output_0,/model/Unsqueeze_3_output_0,/model/Unsqueeze_4_output_0,/model/Unsqueeze_5_output_0,/model/Unsqueeze_8_output_0">
					<dim>1</dim>
				</port>
			</output>
		</layer>
		<layer id="173" name="/model/Constant_16" type="Const" version="opset1">
			<data element_type="i64" shape="1" offset="5561318" size="8" />
			<rt_info>
				<attribute name="precise" version="0" />
			</rt_info>
			<output>
				<port id="0" precision="I64" names="/model/Constant_16_output_0">
					<dim>1</dim>
				</port>
			</output>
		</layer>
		<layer id="174" name="/model/Concat_4" type="Concat" version="opset1">
			<data axis="0" />
			<input>
				<port id="0" precision="I64">
					<dim>1</dim>
				</port>
				<port id="1" precision="I64">
					<dim>1</dim>
				</port>
			</input>
			<output>
				<port id="2" precision="I64" names="/model/Concat_4_output_0,/model/Concat_5_output_0">
					<dim>2</dim>
				</port>
			</output>
		</layer>
		<layer id="175" name="/model/Reshape_1" type="Reshape" version="opset1">
			<data special_zero="true" />
			<input>
				<port id="0" precision="FP32">
					<dim>-1</dim>
				</port>
				<port id="1" precision="I64">
					<dim>2</dim>
				</port>
			</input>
			<output>
				<port id="2" precision="FP32" names="/model/Reshape_1_output_0">
					<dim>-1</dim>
					<dim>-1</dim>
				</port>
			</output>
		</layer>
		<layer id="176" name="Constant_14453" type="Const" version="opset1">
			<data element_type="i64" shape="4" offset="8881566" size="32" />
			<rt_info>
				<attribute name="precise" version="0" />
			</rt_info>
			<output>
				<port id="0" precision="I64">
					<dim>4</dim>
				</port>
			</output>
		</layer>
		<layer id="177" name="/model/Reshape_10" type="Reshape" version="opset1">
			<data special_zero="true" />
			<input>
				<port id="0" precision="FP32">
					<dim>-1</dim>
					<dim>-1</dim>
				</port>
				<port id="1" precision="I64">
					<dim>4</dim>
				</port>
			</input>
			<output>
				<port id="2" precision="FP32" names="/model/Reshape_10_output_0">
					<dim>-1</dim>
					<dim>1</dim>
					<dim>28</dim>
					<dim>28</dim>
				</port>
			</output>
		</layer>
		<layer id="178" name="/model/Constant_41" type="Const" version="opset1">
			<data element_type="i64" shape="1" offset="48" size="8" />
			<rt_info>
				<attribute name="precise" version="0" />
			</rt_info>
			<output>
				<port id="0" precision="I64" names="/model/Constant_41_output_0">
					<dim>1</dim>
				</port>
			</output>
		</layer>
		<layer id="179" name="/model/Concat_11" type="Concat" version="opset1">
			<data axis="0" />
			<input>
				<port id="0" precision="I64">
					<dim>1</dim>
				</port>
				<port id="1" precision="I64">
					<dim>1</dim>
				</port>
				<port id="2" precision="I64">
					<dim>2</dim>
				</port>
			</input>
			<output>
				<port id="3" precision="I64" names="/model/Concat_11_output_0,/model/anomaly_map_generator/Shape_output_0">
					<dim>4</dim>
				</port>
			</output>
		</layer>
		<layer id="180" name="/model/anomaly_map_generator/Constant_1" type="Const" version="opset1">
			<data element_type="i64" shape="1" offset="32" size="8" />
			<rt_info>
				<attribute name="precise" version="0" />
			</rt_info>
			<output>
				<port id="0" precision="I64" names="/model/anomaly_map_generator/Constant_1_output_0">
					<dim>1</dim>
				</port>
			</output>
		</layer>
		<layer id="181" name="/model/anomaly_map_generator/Constant_2" type="Const" version="opset1">
			<data element_type="i64" shape="1" offset="40" size="8" />
			<rt_info>
				<attribute name="precise" version="0" />
			</rt_info>
			<output>
				<port id="0" precision="I64" names="/model/anomaly_map_generator/Constant_2_output_0">
					<dim>1</dim>
				</port>
			</output>
		</layer>
		<layer id="182" name="Broadcast_10861" type="Const" version="opset1">
			<data element_type="i64" shape="1" offset="48" size="8" />
			<rt_info>
				<attribute name="precise" version="0" />
			</rt_info>
			<output>
				<port id="0" precision="I64">
					<dim>1</dim>
				</port>
			</output>
		</layer>
		<layer id="183" name="/model/anomaly_map_generator/Constant" type="Const" version="opset1">
			<data element_type="i64" shape="1" offset="32" size="8" />
			<rt_info>
				<attribute name="precise" version="0" />
			</rt_info>
			<output>
				<port id="0" precision="I64" names="/model/anomaly_map_generator/Constant_output_0">
					<dim>1</dim>
				</port>
			</output>
		</layer>
		<layer id="184" name="/model/anomaly_map_generator/Slice" type="Slice" version="opset8">
			<input>
				<port id="0" precision="I64">
					<dim>4</dim>
				</port>
				<port id="1" precision="I64">
					<dim>1</dim>
				</port>
				<port id="2" precision="I64">
					<dim>1</dim>
				</port>
				<port id="3" precision="I64">
					<dim>1</dim>
				</port>
				<port id="4" precision="I64">
					<dim>1</dim>
				</port>
			</input>
			<output>
				<port id="5" precision="I64" names="/model/anomaly_map_generator/Slice_output_0">
					<dim>2</dim>
				</port>
			</output>
		</layer>
		<layer id="185" name="/model/Shape" type="ShapeOf" version="opset3">
			<data output_type="i64" />
			<input>
				<port id="0" precision="FP32">
					<dim>-1</dim>
					<dim>3</dim>
					<dim>224</dim>
					<dim>224</dim>
				</port>
			</input>
			<output>
				<port id="1" precision="I64" names="/model/Shape_1_output_0,/model/Shape_output_0">
					<dim>4</dim>
				</port>
			</output>
		</layer>
		<layer id="186" name="Constant_13711" type="Const" version="opset1">
			<data element_type="i64" shape="2" offset="152" size="16" />
			<rt_info>
				<attribute name="precise" version="0" />
			</rt_info>
			<output>
				<port id="0" precision="I64">
					<dim>2</dim>
				</port>
			</output>
		</layer>
		<layer id="187" name="Constant_13712" type="Const" version="opset1">
			<data element_type="i64" shape="" offset="32" size="8" />
			<rt_info>
				<attribute name="precise" version="0" />
			</rt_info>
			<output>
				<port id="0" precision="I64" />
			</output>
		</layer>
		<layer id="188" name="Gather_13713" type="Gather" version="opset8">
			<data batch_dims="0" />
			<input>
				<port id="0" precision="I64">
					<dim>4</dim>
				</port>
				<port id="1" precision="I64">
					<dim>2</dim>
				</port>
				<port id="2" precision="I64" />
			</input>
			<output>
				<port id="3" precision="I64" names="/model/anomaly_map_generator/Cast_output_0,/model/anomaly_map_generator/Concat_output_0">
					<dim>2</dim>
				</port>
			</output>
		</layer>
		<layer id="189" name="/model/anomaly_map_generator/Concat_1" type="Concat" version="opset1">
			<data axis="0" />
			<input>
				<port id="0" precision="I64">
					<dim>2</dim>
				</port>
				<port id="1" precision="I64">
					<dim>2</dim>
				</port>
			</input>
			<output>
				<port id="2" precision="I64" names="/model/anomaly_map_generator/Concat_1_output_0">
					<dim>4</dim>
				</port>
			</output>
		</layer>
		<layer id="190" name="/model/anomaly_map_generator/Resize" type="Interpolate" version="opset11">
			<data mode="nearest" shape_calculation_mode="sizes" coordinate_transformation_mode="asymmetric" nearest_mode="floor" antialias="false" pads_begin="0, 0, 0, 0" pads_end="0, 0, 0, 0" cube_coeff="-0.75" />
			<input>
				<port id="0" precision="FP32">
					<dim>-1</dim>
					<dim>1</dim>
					<dim>28</dim>
					<dim>28</dim>
				</port>
				<port id="1" precision="I64">
					<dim>4</dim>
				</port>
			</input>
			<output>
				<port id="2" precision="FP32" names="/model/anomaly_map_generator/Resize_output_0">
					<dim>-1</dim>
					<dim>1</dim>
					<dim>224</dim>
					<dim>224</dim>
				</port>
			</output>
		</layer>
		<layer id="191" name="Split_10913.0" type="Const" version="opset1">
			<data element_type="i64" shape="4" offset="8881598" size="32" />
			<rt_info>
				<attribute name="precise" version="0" />
			</rt_info>
			<output>
				<port id="0" precision="I64">
					<dim>4</dim>
				</port>
			</output>
		</layer>
		<layer id="192" name="Split_10913.1" type="Const" version="opset1">
			<data element_type="i64" shape="4" offset="8881598" size="32" />
			<rt_info>
				<attribute name="precise" version="0" />
			</rt_info>
			<output>
				<port id="0" precision="I64">
					<dim>4</dim>
				</port>
			</output>
		</layer>
		<layer id="193" name="Constant_10911_compressed" type="Const" version="opset1">
			<data element_type="f16" shape="" offset="8881630" size="2" />
			<output>
				<port id="0" precision="FP16" />
			</output>
		</layer>
		<layer id="194" name="Constant_10911" type="Convert" version="opset1">
			<data destination_type="f32" />
			<rt_info>
				<attribute name="decompression" version="0" />
			</rt_info>
			<input>
				<port id="0" precision="FP16" />
			</input>
			<output>
				<port id="1" precision="FP32" />
			</output>
		</layer>
		<layer id="195" name="/model/anomaly_map_generator/blur/Pad" type="Pad" version="opset12">
			<data pad_mode="reflect" />
			<input>
				<port id="0" precision="FP32">
					<dim>-1</dim>
					<dim>1</dim>
					<dim>224</dim>
					<dim>224</dim>
				</port>
				<port id="1" precision="I64">
					<dim>4</dim>
				</port>
				<port id="2" precision="I64">
					<dim>4</dim>
				</port>
				<port id="3" precision="FP32" />
			</input>
			<output>
				<port id="4" precision="FP32" names="/model/anomaly_map_generator/blur/Pad_output_0">
					<dim>-1</dim>
					<dim>1</dim>
					<dim>256</dim>
					<dim>256</dim>
				</port>
			</output>
		</layer>
		<layer id="196" name="model.anomaly_map_generator.blur.kernel_compressed" type="Const" version="opset1">
			<data element_type="f16" shape="1, 1, 33, 33" offset="8881632" size="2178" />
			<output>
				<port id="0" precision="FP16" names="model.anomaly_map_generator.blur.kernel">
					<dim>1</dim>
					<dim>1</dim>
					<dim>33</dim>
					<dim>33</dim>
				</port>
			</output>
		</layer>
		<layer id="197" name="model.anomaly_map_generator.blur.kernel" type="Convert" version="opset1">
			<data destination_type="f32" />
			<rt_info>
				<attribute name="decompression" version="0" />
			</rt_info>
			<input>
				<port id="0" precision="FP16">
					<dim>1</dim>
					<dim>1</dim>
					<dim>33</dim>
					<dim>33</dim>
				</port>
			</input>
			<output>
				<port id="1" precision="FP32">
					<dim>1</dim>
					<dim>1</dim>
					<dim>33</dim>
					<dim>33</dim>
				</port>
			</output>
		</layer>
		<layer id="198" name="/model/anomaly_map_generator/blur/Conv" type="Convolution" version="opset1">
			<data strides="1, 1" dilations="1, 1" pads_begin="0, 0" pads_end="0, 0" auto_pad="explicit" />
			<input>
				<port id="0" precision="FP32">
					<dim>-1</dim>
					<dim>1</dim>
					<dim>256</dim>
					<dim>256</dim>
				</port>
				<port id="1" precision="FP32">
					<dim>1</dim>
					<dim>1</dim>
					<dim>33</dim>
					<dim>33</dim>
				</port>
			</input>
			<output>
				<port id="2" precision="FP32" names="/model/anomaly_map_generator/blur/Conv_output_0,/model/anomaly_map_generator/blur/Reshape_2_output_0">
					<dim>-1</dim>
					<dim>1</dim>
					<dim>224</dim>
					<dim>224</dim>
				</port>
			</output>
		</layer>
		<layer id="199" name="Constant_14216_compressed" type="Const" version="opset1">
			<data element_type="f16" shape="1, 1, 1, 1" offset="8883810" size="2" />
			<output>
				<port id="0" precision="FP16">
					<dim>1</dim>
					<dim>1</dim>
					<dim>1</dim>
					<dim>1</dim>
				</port>
			</output>
		</layer>
		<layer id="200" name="Constant_14216" type="Convert" version="opset1">
			<data destination_type="f32" />
			<rt_info>
				<attribute name="decompression" version="0" />
			</rt_info>
			<input>
				<port id="0" precision="FP16">
					<dim>1</dim>
					<dim>1</dim>
					<dim>1</dim>
					<dim>1</dim>
				</port>
			</input>
			<output>
				<port id="1" precision="FP32">
					<dim>1</dim>
					<dim>1</dim>
					<dim>1</dim>
					<dim>1</dim>
				</port>
			</output>
		</layer>
		<layer id="201" name="Multiply_14108" type="Multiply" version="opset1">
			<data auto_broadcast="numpy" />
			<input>
				<port id="0" precision="FP32">
					<dim>-1</dim>
					<dim>1</dim>
					<dim>224</dim>
					<dim>224</dim>
				</port>
				<port id="1" precision="FP32">
					<dim>1</dim>
					<dim>1</dim>
					<dim>1</dim>
					<dim>1</dim>
				</port>
			</input>
			<output>
				<port id="2" precision="FP32">
					<dim>-1</dim>
					<dim>1</dim>
					<dim>224</dim>
					<dim>224</dim>
				</port>
			</output>
		</layer>
		<layer id="202" name="Constant_14217_compressed" type="Const" version="opset1">
			<data element_type="f16" shape="1, 1, 1, 1" offset="8883812" size="2" />
			<output>
				<port id="0" precision="FP16">
					<dim>1</dim>
					<dim>1</dim>
					<dim>1</dim>
					<dim>1</dim>
				</port>
			</output>
		</layer>
		<layer id="203" name="Constant_14217" type="Convert" version="opset1">
			<data destination_type="f32" />
			<rt_info>
				<attribute name="decompression" version="0" />
			</rt_info>
			<input>
				<port id="0" precision="FP16">
					<dim>1</dim>
					<dim>1</dim>
					<dim>1</dim>
					<dim>1</dim>
				</port>
			</input>
			<output>
				<port id="1" precision="FP32">
					<dim>1</dim>
					<dim>1</dim>
					<dim>1</dim>
					<dim>1</dim>
				</port>
			</output>
		</layer>
		<layer id="204" name="/post_processor/Add_1" type="Add" version="opset1">
			<data auto_broadcast="numpy" />
			<input>
				<port id="0" precision="FP32">
					<dim>-1</dim>
					<dim>1</dim>
					<dim>224</dim>
					<dim>224</dim>
				</port>
				<port id="1" precision="FP32">
					<dim>1</dim>
					<dim>1</dim>
					<dim>1</dim>
					<dim>1</dim>
				</port>
			</input>
			<output>
				<port id="2" precision="FP32" names="/post_processor/Add_1_output_0">
					<dim>-1</dim>
					<dim>1</dim>
					<dim>224</dim>
					<dim>224</dim>
				</port>
			</output>
		</layer>
		<layer id="205" name="anomaly_map" type="Clamp" version="opset1">
			<data min="0" max="1" />
			<input>
				<port id="0" precision="FP32">
					<dim>-1</dim>
					<dim>1</dim>
					<dim>224</dim>
					<dim>224</dim>
				</port>
			</input>
			<output>
				<port id="1" precision="FP32" names="anomaly_map">
					<dim>-1</dim>
					<dim>1</dim>
					<dim>224</dim>
					<dim>224</dim>
				</port>
			</output>
		</layer>
		<layer id="206" name="Constant_14218_compressed" type="Const" version="opset1">
			<data element_type="f16" shape="1, 1, 1, 1" offset="8883814" size="2" />
			<output>
				<port id="0" precision="FP16">
					<dim>1</dim>
					<dim>1</dim>
					<dim>1</dim>
					<dim>1</dim>
				</port>
			</output>
		</layer>
		<layer id="207" name="Constant_14218" type="Convert" version="opset1">
			<data destination_type="f32" />
			<rt_info>
				<attribute name="decompression" version="0" />
			</rt_info>
			<input>
				<port id="0" precision="FP16">
					<dim>1</dim>
					<dim>1</dim>
					<dim>1</dim>
					<dim>1</dim>
				</port>
			</input>
			<output>
				<port id="1" precision="FP32">
					<dim>1</dim>
					<dim>1</dim>
					<dim>1</dim>
					<dim>1</dim>
				</port>
			</output>
		</layer>
		<layer id="208" name="pred_mask" type="Greater" version="opset1">
			<data auto_broadcast="numpy" />
			<input>
				<port id="0" precision="FP32">
					<dim>-1</dim>
					<dim>1</dim>
					<dim>224</dim>
					<dim>224</dim>
				</port>
				<port id="1" precision="FP32">
					<dim>1</dim>
					<dim>1</dim>
					<dim>1</dim>
					<dim>1</dim>
				</port>
			</input>
			<output>
				<port id="2" precision="BOOL" names="pred_mask">
					<dim>-1</dim>
					<dim>1</dim>
					<dim>224</dim>
					<dim>224</dim>
				</port>
			</output>
		</layer>
		<layer id="211" name="Constant_14223_compressed" type="Const" version="opset1">
			<data element_type="f16" shape="1, 1" offset="8883816" size="2" />
			<output>
				<port id="0" precision="FP16">
					<dim>1</dim>
					<dim>1</dim>
				</port>
			</output>
		</layer>
		<layer id="212" name="Constant_14223" type="Convert" version="opset1">
			<data destination_type="f32" />
			<rt_info>
				<attribute name="decompression" version="0" />
			</rt_info>
			<input>
				<port id="0" precision="FP16">
					<dim>1</dim>
					<dim>1</dim>
				</port>
			</input>
			<output>
				<port id="1" precision="FP32">
					<dim>1</dim>
					<dim>1</dim>
				</port>
			</output>
		</layer>
		<layer id="213" name="ShapeOf_14419" type="ShapeOf" version="opset3">
			<data output_type="i64" />
			<input>
				<port id="0" precision="FP32">
					<dim>-1</dim>
					<dim>-1</dim>
				</port>
			</input>
			<output>
				<port id="1" precision="I64" names="/model/Shape_10_output_0,/model/Shape_13_output_0,/model/Shape_9_output_0">
					<dim>2</dim>
				</port>
			</output>
		</layer>
		<layer id="214" name="Constant_14420" type="Const" version="opset1">
			<data element_type="i64" shape="1" offset="48" size="8" />
			<rt_info>
				<attribute name="precise" version="0" />
			</rt_info>
			<output>
				<port id="0" precision="I64">
					<dim>1</dim>
				</port>
			</output>
		</layer>
		<layer id="215" name="Constant_14421" type="Const" version="opset1">
			<data element_type="i64" shape="" offset="32" size="8" />
			<rt_info>
				<attribute name="precise" version="0" />
			</rt_info>
			<output>
				<port id="0" precision="I64" />
			</output>
		</layer>
		<layer id="216" name="Gather_14422" type="Gather" version="opset8">
			<data batch_dims="0" />
			<input>
				<port id="0" precision="I64">
					<dim>2</dim>
				</port>
				<port id="1" precision="I64">
					<dim>1</dim>
				</port>
				<port id="2" precision="I64" />
			</input>
			<output>
				<port id="3" precision="I64" names="/model/Gather_13_output_0,/model/Gather_9_output_0,/model/Unsqueeze_6_output_0">
					<dim>1</dim>
				</port>
			</output>
		</layer>
		<layer id="217" name="/model/Constant_20" type="Const" version="opset1">
			<data element_type="i64" shape="1" offset="5561318" size="8" />
			<rt_info>
				<attribute name="precise" version="0" />
			</rt_info>
			<output>
				<port id="0" precision="I64" names="/model/Constant_20_output_0">
					<dim>1</dim>
				</port>
			</output>
		</layer>
		<layer id="218" name="/model/Concat_6" type="Concat" version="opset1">
			<data axis="0" />
			<input>
				<port id="0" precision="I64">
					<dim>1</dim>
				</port>
				<port id="1" precision="I64">
					<dim>1</dim>
				</port>
				<port id="2" precision="I64">
					<dim>1</dim>
				</port>
			</input>
			<output>
				<port id="3" precision="I64" names="/model/Concat_6_output_0">
					<dim>3</dim>
				</port>
			</output>
		</layer>
		<layer id="219" name="/model/Reshape_3" type="Reshape" version="opset1">
			<data special_zero="true" />
			<input>
				<port id="0" precision="FP32">
					<dim>-1</dim>
					<dim>384</dim>
				</port>
				<port id="1" precision="I64">
					<dim>3</dim>
				</port>
			</input>
			<output>
				<port id="2" precision="FP32" names="/model/Reshape_3_output_0">
					<dim>-1</dim>
					<dim>-1</dim>
					<dim>-1</dim>
				</port>
			</output>
		</layer>
		<layer id="220" name="Constant_10648" type="Const" version="opset1">
			<data element_type="i64" shape="" offset="32" size="8" />
			<rt_info>
				<attribute name="precise" version="0" />
			</rt_info>
			<output>
				<port id="0" precision="I64" />
			</output>
		</layer>
		<layer id="221" name="ReduceProd_10649" type="ReduceProd" version="opset1">
			<data keep_dims="true" />
			<input>
				<port id="0" precision="I64">
					<dim>2</dim>
				</port>
				<port id="1" precision="I64" />
			</input>
			<output>
				<port id="2" precision="I64">
					<dim>1</dim>
				</port>
			</output>
		</layer>
		<layer id="222" name="Constant_10650" type="Const" version="opset1">
			<data element_type="i64" shape="1" offset="5561318" size="8" />
			<rt_info>
				<attribute name="precise" version="0" />
			</rt_info>
			<output>
				<port id="0" precision="I64">
					<dim>1</dim>
				</port>
			</output>
		</layer>
		<layer id="223" name="Concat_10651" type="Concat" version="opset1">
			<data axis="0" />
			<input>
				<port id="0" precision="I64">
					<dim>1</dim>
				</port>
				<port id="1" precision="I64">
					<dim>1</dim>
				</port>
			</input>
			<output>
				<port id="2" precision="I64">
					<dim>2</dim>
				</port>
			</output>
		</layer>
		<layer id="224" name="/model/Flatten" type="Reshape" version="opset1">
			<data special_zero="true" />
			<input>
				<port id="0" precision="FP32">
					<dim>-1</dim>
					<dim>-1</dim>
					<dim>-1</dim>
				</port>
				<port id="1" precision="I64">
					<dim>2</dim>
				</port>
			</input>
			<output>
				<port id="2" precision="FP32" names="/model/Flatten_output_0">
					<dim>-1</dim>
					<dim>-1</dim>
				</port>
			</output>
		</layer>
		<layer id="225" name="Constant_10614" type="Const" version="opset1">
			<data element_type="i64" shape="" offset="48" size="8" />
			<rt_info>
				<attribute name="precise" version="0" />
			</rt_info>
			<output>
				<port id="0" precision="I64" />
			</output>
		</layer>
		<layer id="226" name="TopK_10615" type="TopK" version="opset11">
			<data axis="1" mode="max" sort="none" index_element_type="i32" stable="false" />
			<input>
				<port id="0" precision="FP32">
					<dim>-1</dim>
					<dim>-1</dim>
				</port>
				<port id="1" precision="I64" />
			</input>
			<output>
				<port id="2" precision="FP32">
					<dim>-1</dim>
					<dim>1</dim>
				</port>
				<port id="3" precision="I32">
					<dim>-1</dim>
					<dim>1</dim>
				</port>
			</output>
		</layer>
		<layer id="227" name="Convert_10616" type="Convert" version="opset1">
			<data destination_type="i64" />
			<input>
				<port id="0" precision="I32">
					<dim>-1</dim>
					<dim>1</dim>
				</port>
			</input>
			<output>
				<port id="1" precision="I64">
					<dim>-1</dim>
					<dim>1</dim>
				</port>
			</output>
		</layer>
		<layer id="228" name="Constant_10617" type="Const" version="opset1">
			<data element_type="u64" shape="" offset="48" size="8" />
			<output>
				<port id="0" precision="U64" />
			</output>
		</layer>
		<layer id="229" name="/model/ArgMax" type="Squeeze" version="opset1">
			<input>
				<port id="0" precision="I64">
					<dim>-1</dim>
					<dim>1</dim>
				</port>
				<port id="1" precision="U64" />
			</input>
			<output>
				<port id="2" precision="I64" names="/model/ArgMax_output_0">
					<dim>-1</dim>
				</port>
			</output>
		</layer>
		<layer id="230" name="/model/Constant_21" type="Const" version="opset1">
			<data element_type="i64" shape="" offset="32" size="8" />
			<output>
				<port id="0" precision="I64" names="/model/Constant_21_output_0" />
			</output>
		</layer>
		<layer id="231" name="Squeeze_14416" type="Squeeze" version="opset1">
			<input>
				<port id="0" precision="I64">
					<dim>1</dim>
				</port>
			</input>
			<output>
				<port id="1" precision="I64" names="/model/Cast_1_output_0,/model/Gather_8_output_0" />
			</output>
		</layer>
		<layer id="232" name="/model/Constant_22" type="Const" version="opset1">
			<data element_type="i64" shape="" offset="48" size="8" />
			<output>
				<port id="0" precision="I64" names="/model/Constant_22_output_0" />
			</output>
		</layer>
		<layer id="233" name="/model/Range" type="Range" version="opset4">
			<data output_type="i64" />
			<input>
				<port id="0" precision="I64" />
				<port id="1" precision="I64" />
				<port id="2" precision="I64" />
			</input>
			<output>
				<port id="3" precision="I64" names="/model/Range_output_0">
					<dim>-1</dim>
				</port>
			</output>
		</layer>
		<layer id="234" name="ShapeOf_10642" type="ShapeOf" version="opset3">
			<data output_type="i64" />
			<input>
				<port id="0" precision="FP32">
					<dim>-1</dim>
					<dim>-1</dim>
					<dim>-1</dim>
				</port>
			</input>
			<output>
				<port id="1" precision="I64" names="/model/Shape_11_output_0">
					<dim>3</dim>
				</port>
			</output>
		</layer>
		<layer id="235" name="/model/Constant_23" type="Const" version="opset1">
			<data element_type="i64" shape="1" offset="48" size="8" />
			<output>
				<port id="0" precision="I64" names="/model/Constant_23_output_0">
					<dim>1</dim>
				</port>
			</output>
		</layer>
		<layer id="236" name="Constant_10637" type="Const" version="opset1">
			<data element_type="i64" shape="" offset="32" size="8" />
			<output>
				<port id="0" precision="I64" />
			</output>
		</layer>
		<layer id="237" name="/model/Gather_10" type="Gather" version="opset8">
			<data batch_dims="0" />
			<input>
				<port id="0" precision="I64">
					<dim>3</dim>
				</port>
				<port id="1" precision="I64">
					<dim>1</dim>
				</port>
				<port id="2" precision="I64" />
			</input>
			<output>
				<port id="3" precision="I64" names="/model/Gather_10_output_0">
					<dim>1</dim>
				</port>
			</output>
		</layer>
		<layer id="238" name="/model/Mul_1" type="Multiply" version="opset1">
			<data auto_broadcast="numpy" />
			<input>
				<port id="0" precision="I64">
					<dim>-1</dim>
				</port>
				<port id="1" precision="I64">
					<dim>1</dim>
				</port>
			</input>
			<output>
				<port id="2" precision="I64" names="/model/Mul_1_output_0">
					<dim>-1</dim>
				</port>
			</output>
		</layer>
		<layer id="239" name="/model/Add_1" type="Add" version="opset1">
			<data auto_broadcast="numpy" />
			<input>
				<port id="0" precision="I64">
					<dim>-1</dim>
				</port>
				<port id="1" precision="I64">
					<dim>-1</dim>
				</port>
			</input>
			<output>
				<port id="2" precision="I64" names="/model/Add_1_output_0">
					<dim>-1</dim>
				</port>
			</output>
		</layer>
		<layer id="240" name="Constant_10681" type="Const" version="opset1">
			<data element_type="i64" shape="" offset="32" size="8" />
			<output>
				<port id="0" precision="I64" />
			</output>
		</layer>
		<layer id="241" name="/model/Gather_12" type="Gather" version="opset8">
			<data batch_dims="0" />
			<input>
				<port id="0" precision="FP32">
					<dim>-1</dim>
					<dim>-1</dim>
				</port>
				<port id="1" precision="I64">
					<dim>-1</dim>
				</port>
				<port id="2" precision="I64" />
			</input>
			<output>
				<port id="3" precision="FP32" names="/model/Gather_12_output_0">
					<dim>-1</dim>
					<dim>-1</dim>
				</port>
			</output>
		</layer>
		<layer id="242" name="Constant_14454" type="Const" version="opset1">
			<data element_type="i64" shape="2" offset="8883818" size="16" />
			<rt_info>
				<attribute name="precise" version="0" />
			</rt_info>
			<output>
				<port id="0" precision="I64">
					<dim>2</dim>
				</port>
			</output>
		</layer>
		<layer id="243" name="/model/Reshape_4" type="Reshape" version="opset1">
			<data special_zero="true" />
			<input>
				<port id="0" precision="FP32">
					<dim>-1</dim>
					<dim>-1</dim>
				</port>
				<port id="1" precision="I64">
					<dim>2</dim>
				</port>
			</input>
			<output>
				<port id="2" precision="FP32" names="/model/Reshape_4_output_0">
					<dim>-1</dim>
					<dim>-1</dim>
				</port>
			</output>
		</layer>
		<layer id="244" name="Constant_14455" type="Const" version="opset1">
			<data element_type="i64" shape="2" offset="8883834" size="16" />
			<rt_info>
				<attribute name="precise" version="0" />
			</rt_info>
			<output>
				<port id="0" precision="I64">
					<dim>2</dim>
				</port>
			</output>
		</layer>
		<layer id="245" name="/model/Reshape_5" type="Reshape" version="opset1">
			<data special_zero="true" />
			<input>
				<port id="0" precision="FP32">
					<dim>-1</dim>
					<dim>-1</dim>
				</port>
				<port id="1" precision="I64">
					<dim>2</dim>
				</port>
			</input>
			<output>
				<port id="2" precision="FP32" names="/model/Reshape_5_output_0">
					<dim>-1</dim>
					<dim>-1</dim>
				</port>
			</output>
		</layer>
		<layer id="246" name="/model/Constant_34" type="Const" version="opset1">
			<data element_type="i64" shape="1" offset="48" size="8" />
			<output>
				<port id="0" precision="I64" names="/model/Constant_34_output_0">
					<dim>1</dim>
				</port>
			</output>
		</layer>
		<layer id="247" name="/model/Unsqueeze_7" type="Unsqueeze" version="opset1">
			<input>
				<port id="0" precision="FP32">
					<dim>-1</dim>
					<dim>-1</dim>
				</port>
				<port id="1" precision="I64">
					<dim>1</dim>
				</port>
			</input>
			<output>
				<port id="2" precision="FP32" names="/model/Unsqueeze_7_output_0">
					<dim>-1</dim>
					<dim>1</dim>
					<dim>-1</dim>
				</port>
			</output>
		</layer>
		<layer id="248" name="Constant_14219_compressed" type="Const" version="opset1">
			<data element_type="f16" shape="1, 1, 1" offset="5561316" size="2" />
			<output>
				<port id="0" precision="FP16">
					<dim>1</dim>
					<dim>1</dim>
					<dim>1</dim>
				</port>
			</output>
		</layer>
		<layer id="249" name="Constant_14219" type="Convert" version="opset1">
			<data destination_type="f32" />
			<rt_info>
				<attribute name="decompression" version="0" />
			</rt_info>
			<input>
				<port id="0" precision="FP16">
					<dim>1</dim>
					<dim>1</dim>
					<dim>1</dim>
				</port>
			</input>
			<output>
				<port id="1" precision="FP32">
					<dim>1</dim>
					<dim>1</dim>
					<dim>1</dim>
				</port>
			</output>
		</layer>
		<layer id="250" name="/model/Pow_3" type="Power" version="opset1">
			<data auto_broadcast="numpy" />
			<input>
				<port id="0" precision="FP32">
					<dim>-1</dim>
					<dim>1</dim>
					<dim>-1</dim>
				</port>
				<port id="1" precision="FP32">
					<dim>1</dim>
					<dim>1</dim>
					<dim>1</dim>
				</port>
			</input>
			<output>
				<port id="2" precision="FP32" names="/model/Pow_3_output_0">
					<dim>-1</dim>
					<dim>1</dim>
					<dim>-1</dim>
				</port>
			</output>
		</layer>
		<layer id="251" name="/model/ReduceSum_3" type="ReduceSum" version="opset1">
			<data keep_dims="true" />
			<input>
				<port id="0" precision="FP32">
					<dim>-1</dim>
					<dim>1</dim>
					<dim>-1</dim>
				</port>
				<port id="1" precision="I64">
					<dim>1</dim>
				</port>
			</input>
			<output>
				<port id="2" precision="FP32" names="/model/ReduceSum_3_output_0">
					<dim>-1</dim>
					<dim>1</dim>
					<dim>1</dim>
				</port>
			</output>
		</layer>
		<layer id="252" name="model.memory_bank_compressed" type="Const" version="opset1">
			<data element_type="f16" shape="4312, 384" offset="8883850" size="3311616" />
			<output>
				<port id="0" precision="FP16" names="model.memory_bank">
					<dim>4312</dim>
					<dim>384</dim>
				</port>
			</output>
		</layer>
		<layer id="253" name="model.memory_bank" type="Convert" version="opset1">
			<data destination_type="f32" />
			<rt_info>
				<attribute name="decompression" version="0" />
			</rt_info>
			<input>
				<port id="0" precision="FP16">
					<dim>4312</dim>
					<dim>384</dim>
				</port>
			</input>
			<output>
				<port id="1" precision="FP32">
					<dim>4312</dim>
					<dim>384</dim>
				</port>
			</output>
		</layer>
		<layer id="254" name="Constant_10591" type="Const" version="opset1">
			<data element_type="i64" shape="" offset="48" size="8" />
			<rt_info>
				<attribute name="precise" version="0" />
			</rt_info>
			<output>
				<port id="0" precision="I64" />
			</output>
		</layer>
		<layer id="255" name="TopK_10592" type="TopK" version="opset11">
			<data axis="1" mode="min" sort="none" index_element_type="i32" stable="false" />
			<input>
				<port id="0" precision="FP32">
					<dim>-1</dim>
					<dim>4312</dim>
				</port>
				<port id="1" precision="I64" />
			</input>
			<output>
				<port id="2" precision="FP32">
					<dim>-1</dim>
					<dim>1</dim>
				</port>
				<port id="3" precision="I32">
					<dim>-1</dim>
					<dim>1</dim>
				</port>
			</output>
		</layer>
		<layer id="256" name="Convert_10593" type="Convert" version="opset1">
			<data destination_type="i64" />
			<input>
				<port id="0" precision="I32">
					<dim>-1</dim>
					<dim>1</dim>
				</port>
			</input>
			<output>
				<port id="1" precision="I64">
					<dim>-1</dim>
					<dim>1</dim>
				</port>
			</output>
		</layer>
		<layer id="257" name="Constant_10594" type="Const" version="opset1">
			<data element_type="u64" shape="" offset="48" size="8" />
			<output>
				<port id="0" precision="U64" />
			</output>
		</layer>
		<layer id="258" name="/model/ArgMin" type="Squeeze" version="opset1">
			<input>
				<port id="0" precision="I64">
					<dim>-1</dim>
					<dim>1</dim>
				</port>
				<port id="1" precision="U64" />
			</input>
			<output>
				<port id="2" precision="I64" names="/model/ArgMin_output_0">
					<dim>-1</dim>
				</port>
			</output>
		</layer>
		<layer id="259" name="/model/Reshape_2" type="Reshape" version="opset1">
			<data special_zero="true" />
			<input>
				<port id="0" precision="I64">
					<dim>-1</dim>
				</port>
				<port id="1" precision="I64">
					<dim>2</dim>
				</port>
			</input>
			<output>
				<port id="2" precision="I64" names="/model/Reshape_2_output_0">
					<dim>-1</dim>
					<dim>-1</dim>
				</port>
			</output>
		</layer>
		<layer id="260" name="ShapeOf_10743" type="ShapeOf" version="opset3">
			<data output_type="i64" />
			<input>
				<port id="0" precision="I64">
					<dim>-1</dim>
					<dim>-1</dim>
				</port>
			</input>
			<output>
				<port id="1" precision="I64" names="/model/Shape_15_output_0">
					<dim>2</dim>
				</port>
			</output>
		</layer>
		<layer id="261" name="Constant_10749" type="Const" version="opset1">
			<data element_type="i64" shape="" offset="32" size="8" />
			<rt_info>
				<attribute name="precise" version="0" />
			</rt_info>
			<output>
				<port id="0" precision="I64" />
			</output>
		</layer>
		<layer id="262" name="ReduceProd_10750" type="ReduceProd" version="opset1">
			<data keep_dims="true" />
			<input>
				<port id="0" precision="I64">
					<dim>2</dim>
				</port>
				<port id="1" precision="I64" />
			</input>
			<output>
				<port id="2" precision="I64">
					<dim>1</dim>
				</port>
			</output>
		</layer>
		<layer id="263" name="Constant_10751" type="Const" version="opset1">
			<data element_type="i64" shape="1" offset="5561318" size="8" />
			<rt_info>
				<attribute name="precise" version="0" />
			</rt_info>
			<output>
				<port id="0" precision="I64">
					<dim>1</dim>
				</port>
			</output>
		</layer>
		<layer id="264" name="Concat_10752" type="Concat" version="opset1">
			<data axis="0" />
			<input>
				<port id="0" precision="I64">
					<dim>1</dim>
				</port>
				<port id="1" precision="I64">
					<dim>1</dim>
				</port>
			</input>
			<output>
				<port id="2" precision="I64">
					<dim>2</dim>
				</port>
			</output>
		</layer>
		<layer id="265" name="/model/Flatten_2" type="Reshape" version="opset1">
			<data special_zero="true" />
			<input>
				<port id="0" precision="I64">
					<dim>-1</dim>
					<dim>-1</dim>
				</port>
				<port id="1" precision="I64">
					<dim>2</dim>
				</port>
			</input>
			<output>
				<port id="2" precision="I64" names="/model/Flatten_2_output_0">
					<dim>-1</dim>
					<dim>-1</dim>
				</port>
			</output>
		</layer>
		<layer id="266" name="/model/Constant_28" type="Const" version="opset1">
			<data element_type="i64" shape="1" offset="48" size="8" />
			<output>
				<port id="0" precision="I64" names="/model/Constant_28_output_0">
					<dim>1</dim>
				</port>
			</output>
		</layer>
		<layer id="267" name="Constant_10741" type="Const" version="opset1">
			<data element_type="i64" shape="" offset="32" size="8" />
			<output>
				<port id="0" precision="I64" />
			</output>
		</layer>
		<layer id="268" name="/model/Gather_15" type="Gather" version="opset8">
			<data batch_dims="0" />
			<input>
				<port id="0" precision="I64">
					<dim>2</dim>
				</port>
				<port id="1" precision="I64">
					<dim>1</dim>
				</port>
				<port id="2" precision="I64" />
			</input>
			<output>
				<port id="3" precision="I64" names="/model/Gather_15_output_0">
					<dim>1</dim>
				</port>
			</output>
		</layer>
		<layer id="269" name="/model/Mul_3" type="Multiply" version="opset1">
			<data auto_broadcast="numpy" />
			<input>
				<port id="0" precision="I64">
					<dim>-1</dim>
				</port>
				<port id="1" precision="I64">
					<dim>1</dim>
				</port>
			</input>
			<output>
				<port id="2" precision="I64" names="/model/Mul_3_output_0">
					<dim>-1</dim>
				</port>
			</output>
		</layer>
		<layer id="270" name="/model/Add_3" type="Add" version="opset1">
			<data auto_broadcast="numpy" />
			<input>
				<port id="0" precision="I64">
					<dim>-1</dim>
				</port>
				<port id="1" precision="I64">
					<dim>-1</dim>
				</port>
			</input>
			<output>
				<port id="2" precision="I64" names="/model/Add_3_output_0">
					<dim>-1</dim>
				</port>
			</output>
		</layer>
		<layer id="271" name="Constant_10782" type="Const" version="opset1">
			<data element_type="i64" shape="" offset="32" size="8" />
			<output>
				<port id="0" precision="I64" />
			</output>
		</layer>
		<layer id="272" name="/model/Gather_16" type="Gather" version="opset8">
			<data batch_dims="0" />
			<input>
				<port id="0" precision="I64">
					<dim>-1</dim>
					<dim>-1</dim>
				</port>
				<port id="1" precision="I64">
					<dim>-1</dim>
				</port>
				<port id="2" precision="I64" />
			</input>
			<output>
				<port id="3" precision="I64" names="/model/Gather_16_output_0">
					<dim>-1</dim>
					<dim>-1</dim>
				</port>
			</output>
		</layer>
		<layer id="273" name="Constant_11300" type="Const" version="opset1">
			<data element_type="i64" shape="1" offset="5561318" size="8" />
			<rt_info>
				<attribute name="precise" version="0" />
			</rt_info>
			<output>
				<port id="0" precision="I64">
					<dim>1</dim>
				</port>
			</output>
		</layer>
		<layer id="274" name="/model/Reshape_8" type="Reshape" version="opset1">
			<data special_zero="true" />
			<input>
				<port id="0" precision="I64">
					<dim>-1</dim>
					<dim>-1</dim>
				</port>
				<port id="1" precision="I64">
					<dim>1</dim>
				</port>
			</input>
			<output>
				<port id="2" precision="I64" names="/model/Reshape_8_output_0,/model/Reshape_9_output_0">
					<dim>-1</dim>
				</port>
			</output>
		</layer>
		<layer id="275" name="Constant_10789" type="Const" version="opset1">
			<data element_type="i64" shape="" offset="32" size="8" />
			<output>
				<port id="0" precision="I64" />
			</output>
		</layer>
		<layer id="276" name="/model/Gather_17" type="Gather" version="opset8">
			<data batch_dims="0" />
			<input>
				<port id="0" precision="FP32">
					<dim>4312</dim>
					<dim>384</dim>
				</port>
				<port id="1" precision="I64">
					<dim>-1</dim>
				</port>
				<port id="2" precision="I64" />
			</input>
			<output>
				<port id="3" precision="FP32" names="/model/Gather_17_output_0">
					<dim>-1</dim>
					<dim>384</dim>
				</port>
			</output>
		</layer>
		<layer id="277" name="Constant_14220_compressed" type="Const" version="opset1">
			<data element_type="f16" shape="1, 1" offset="5561316" size="2" />
			<output>
				<port id="0" precision="FP16">
					<dim>1</dim>
					<dim>1</dim>
				</port>
			</output>
		</layer>
		<layer id="278" name="Constant_14220" type="Convert" version="opset1">
			<data destination_type="f32" />
			<rt_info>
				<attribute name="decompression" version="0" />
			</rt_info>
			<input>
				<port id="0" precision="FP16">
					<dim>1</dim>
					<dim>1</dim>
				</port>
			</input>
			<output>
				<port id="1" precision="FP32">
					<dim>1</dim>
					<dim>1</dim>
				</port>
			</output>
		</layer>
		<layer id="279" name="/model/Pow_2" type="Power" version="opset1">
			<data auto_broadcast="numpy" />
			<input>
				<port id="0" precision="FP32">
					<dim>-1</dim>
					<dim>384</dim>
				</port>
				<port id="1" precision="FP32">
					<dim>1</dim>
					<dim>1</dim>
				</port>
			</input>
			<output>
				<port id="2" precision="FP32" names="/model/Pow_2_output_0">
					<dim>-1</dim>
					<dim>384</dim>
				</port>
			</output>
		</layer>
		<layer id="280" name="/model/ReduceSum_2" type="ReduceSum" version="opset1">
			<data keep_dims="true" />
			<input>
				<port id="0" precision="FP32">
					<dim>-1</dim>
					<dim>384</dim>
				</port>
				<port id="1" precision="I64">
					<dim>1</dim>
				</port>
			</input>
			<output>
				<port id="2" precision="FP32" names="/model/ReduceSum_2_output_0">
					<dim>-1</dim>
					<dim>1</dim>
				</port>
			</output>
		</layer>
		<layer id="281" name="Multiply_14124_compressed" type="Const" version="opset1">
			<data element_type="f16" shape="4312, 384" offset="5561326" size="3311616" />
			<output>
				<port id="0" precision="FP16">
					<dim>4312</dim>
					<dim>384</dim>
				</port>
			</output>
		</layer>
		<layer id="282" name="Multiply_14124" type="Convert" version="opset1">
			<data destination_type="f32" />
			<rt_info>
				<attribute name="decompression" version="0" />
			</rt_info>
			<input>
				<port id="0" precision="FP16">
					<dim>4312</dim>
					<dim>384</dim>
				</port>
			</input>
			<output>
				<port id="1" precision="FP32">
					<dim>4312</dim>
					<dim>384</dim>
				</port>
			</output>
		</layer>
		<layer id="283" name="/model/Mul_4" type="MatMul" version="opset1">
			<data transpose_a="false" transpose_b="true" />
			<input>
				<port id="0" precision="FP32">
					<dim>-1</dim>
					<dim>384</dim>
				</port>
				<port id="1" precision="FP32">
					<dim>4312</dim>
					<dim>384</dim>
				</port>
			</input>
			<output>
				<port id="2" precision="FP32" names="/model/Mul_4_output_0">
					<dim>-1</dim>
					<dim>4312</dim>
				</port>
			</output>
		</layer>
		<layer id="284" name="/model/Sub_1" type="Subtract" version="opset1">
			<data auto_broadcast="numpy" />
			<input>
				<port id="0" precision="FP32">
					<dim>-1</dim>
					<dim>1</dim>
				</port>
				<port id="1" precision="FP32">
					<dim>-1</dim>
					<dim>4312</dim>
				</port>
			</input>
			<output>
				<port id="2" precision="FP32" names="/model/Sub_1_output_0">
					<dim>-1</dim>
					<dim>4312</dim>
				</port>
			</output>
		</layer>
		<layer id="285" name="/model/Add_4" type="Add" version="opset1">
			<data auto_broadcast="numpy" />
			<input>
				<port id="0" precision="FP32">
					<dim>-1</dim>
					<dim>4312</dim>
				</port>
				<port id="1" precision="FP32">
					<dim>1</dim>
					<dim>4312</dim>
				</port>
			</input>
			<output>
				<port id="2" precision="FP32" names="/model/Add_4_output_0">
					<dim>-1</dim>
					<dim>4312</dim>
				</port>
			</output>
		</layer>
		<layer id="286" name="/model/Clip_1" type="Clamp" version="opset1">
			<data min="0" max="3.4028234663852886e+38" />
			<input>
				<port id="0" precision="FP32">
					<dim>-1</dim>
					<dim>4312</dim>
				</port>
			</input>
			<output>
				<port id="1" precision="FP32" names="/model/Clip_1_output_0">
					<dim>-1</dim>
					<dim>4312</dim>
				</port>
			</output>
		</layer>
		<layer id="287" name="/model/Sqrt_1" type="Sqrt" version="opset1">
			<input>
				<port id="0" precision="FP32">
					<dim>-1</dim>
					<dim>4312</dim>
				</port>
			</input>
			<output>
				<port id="1" precision="FP32" names="/model/Sqrt_1_output_0">
					<dim>-1</dim>
					<dim>4312</dim>
				</port>
			</output>
		</layer>
		<layer id="288" name="Constant_10806" type="Const" version="opset1">
			<data element_type="i64" shape="" offset="12195466" size="8" />
			<rt_info>
				<attribute name="precise" version="0" />
			</rt_info>
			<output>
				<port id="0" precision="I64" />
			</output>
		</layer>
		<layer id="289" name="/model/TopK" type="TopK" version="opset11">
			<data axis="1" mode="min" sort="value" index_element_type="i64" stable="false" />
			<input>
				<port id="0" precision="FP32">
					<dim>-1</dim>
					<dim>4312</dim>
				</port>
				<port id="1" precision="I64" />
			</input>
			<output>
				<port id="2" precision="FP32" names="/model/TopK_output_0">
					<dim>-1</dim>
					<dim>9</dim>
				</port>
				<port id="3" precision="I64" names="/model/TopK_output_1">
					<dim>-1</dim>
					<dim>9</dim>
				</port>
			</output>
		</layer>
		<layer id="290" name="Constant_10810" type="Const" version="opset1">
			<data element_type="i64" shape="" offset="32" size="8" />
			<output>
				<port id="0" precision="I64" />
			</output>
		</layer>
		<layer id="291" name="/model/Gather_18" type="Gather" version="opset8">
			<data batch_dims="0" />
			<input>
				<port id="0" precision="FP32">
					<dim>4312</dim>
					<dim>384</dim>
				</port>
				<port id="1" precision="I64">
					<dim>-1</dim>
					<dim>9</dim>
				</port>
				<port id="2" precision="I64" />
			</input>
			<output>
				<port id="3" precision="FP32" names="/model/Gather_18_output_0">
					<dim>-1</dim>
					<dim>9</dim>
					<dim>384</dim>
				</port>
			</output>
		</layer>
		<layer id="292" name="Constant_14221_compressed" type="Const" version="opset1">
			<data element_type="f16" shape="1, 1, 1" offset="5561316" size="2" />
			<output>
				<port id="0" precision="FP16">
					<dim>1</dim>
					<dim>1</dim>
					<dim>1</dim>
				</port>
			</output>
		</layer>
		<layer id="293" name="Constant_14221" type="Convert" version="opset1">
			<data destination_type="f32" />
			<rt_info>
				<attribute name="decompression" version="0" />
			</rt_info>
			<input>
				<port id="0" precision="FP16">
					<dim>1</dim>
					<dim>1</dim>
					<dim>1</dim>
				</port>
			</input>
			<output>
				<port id="1" precision="FP32">
					<dim>1</dim>
					<dim>1</dim>
					<dim>1</dim>
				</port>
			</output>
		</layer>
		<layer id="294" name="Multiply_14126" type="Multiply" version="opset1">
			<data auto_broadcast="numpy" />
			<input>
				<port id="0" precision="FP32">
					<dim>-1</dim>
					<dim>9</dim>
					<dim>384</dim>
				</port>
				<port id="1" precision="FP32">
					<dim>1</dim>
					<dim>1</dim>
					<dim>1</dim>
				</port>
			</input>
			<output>
				<port id="2" precision="FP32">
					<dim>-1</dim>
					<dim>9</dim>
					<dim>384</dim>
				</port>
			</output>
		</layer>
		<layer id="295" name="/model/Mul_5" type="MatMul" version="opset1">
			<data transpose_a="false" transpose_b="true" />
			<input>
				<port id="0" precision="FP32">
					<dim>-1</dim>
					<dim>1</dim>
					<dim>-1</dim>
				</port>
				<port id="1" precision="FP32">
					<dim>-1</dim>
					<dim>9</dim>
					<dim>384</dim>
				</port>
			</input>
			<output>
				<port id="2" precision="FP32" names="/model/Mul_5_output_0">
					<dim>-1</dim>
					<dim>1</dim>
					<dim>9</dim>
				</port>
			</output>
		</layer>
		<layer id="296" name="/model/Sub_2" type="Subtract" version="opset1">
			<data auto_broadcast="numpy" />
			<input>
				<port id="0" precision="FP32">
					<dim>-1</dim>
					<dim>1</dim>
					<dim>1</dim>
				</port>
				<port id="1" precision="FP32">
					<dim>-1</dim>
					<dim>1</dim>
					<dim>9</dim>
				</port>
			</input>
			<output>
				<port id="2" precision="FP32" names="/model/Sub_2_output_0">
					<dim>-1</dim>
					<dim>1</dim>
					<dim>9</dim>
				</port>
			</output>
		</layer>
		<layer id="297" name="Constant_14222_compressed" type="Const" version="opset1">
			<data element_type="f16" shape="1, 1, 1" offset="5561316" size="2" />
			<output>
				<port id="0" precision="FP16">
					<dim>1</dim>
					<dim>1</dim>
					<dim>1</dim>
				</port>
			</output>
		</layer>
		<layer id="298" name="Constant_14222" type="Convert" version="opset1">
			<data destination_type="f32" />
			<rt_info>
				<attribute name="decompression" version="0" />
			</rt_info>
			<input>
				<port id="0" precision="FP16">
					<dim>1</dim>
					<dim>1</dim>
					<dim>1</dim>
				</port>
			</input>
			<output>
				<port id="1" precision="FP32">
					<dim>1</dim>
					<dim>1</dim>
					<dim>1</dim>
				</port>
			</output>
		</layer>
		<layer id="299" name="/model/Pow_4" type="Power" version="opset1">
			<data auto_broadcast="numpy" />
			<input>
				<port id="0" precision="FP32">
					<dim>-1</dim>
					<dim>9</dim>
					<dim>384</dim>
				</port>
				<port id="1" precision="FP32">
					<dim>1</dim>
					<dim>1</dim>
					<dim>1</dim>
				</port>
			</input>
			<output>
				<port id="2" precision="FP32" names="/model/Pow_4_output_0">
					<dim>-1</dim>
					<dim>9</dim>
					<dim>384</dim>
				</port>
			</output>
		</layer>
		<layer id="300" name="/model/ReduceSum_4" type="ReduceSum" version="opset1">
			<data keep_dims="true" />
			<input>
				<port id="0" precision="FP32">
					<dim>-1</dim>
					<dim>9</dim>
					<dim>384</dim>
				</port>
				<port id="1" precision="I64">
					<dim>1</dim>
				</port>
			</input>
			<output>
				<port id="2" precision="FP32" names="/model/ReduceSum_4_output_0">
					<dim>-1</dim>
					<dim>9</dim>
					<dim>1</dim>
				</port>
			</output>
		</layer>
		<layer id="301" name="Constant_14066" type="Const" version="opset1">
			<data element_type="i64" shape="3" offset="12195474" size="24" />
			<rt_info>
				<attribute name="precise" version="0" />
			</rt_info>
			<output>
				<port id="0" precision="I64">
					<dim>3</dim>
				</port>
			</output>
		</layer>
		<layer id="302" name="/model/Transpose_3" type="Reshape" version="opset1">
			<data special_zero="true" />
			<input>
				<port id="0" precision="FP32">
					<dim>-1</dim>
					<dim>9</dim>
					<dim>1</dim>
				</port>
				<port id="1" precision="I64">
					<dim>3</dim>
				</port>
			</input>
			<output>
				<port id="2" precision="FP32" names="/model/Transpose_3_output_0">
					<dim>-1</dim>
					<dim>1</dim>
					<dim>9</dim>
				</port>
			</output>
		</layer>
		<layer id="303" name="/model/Add_5" type="Add" version="opset1">
			<data auto_broadcast="numpy" />
			<input>
				<port id="0" precision="FP32">
					<dim>-1</dim>
					<dim>1</dim>
					<dim>9</dim>
				</port>
				<port id="1" precision="FP32">
					<dim>-1</dim>
					<dim>1</dim>
					<dim>9</dim>
				</port>
			</input>
			<output>
				<port id="2" precision="FP32" names="/model/Add_5_output_0">
					<dim>-1</dim>
					<dim>1</dim>
					<dim>9</dim>
				</port>
			</output>
		</layer>
		<layer id="304" name="/model/Clip_2" type="Clamp" version="opset1">
			<data min="0" max="3.4028234663852886e+38" />
			<input>
				<port id="0" precision="FP32">
					<dim>-1</dim>
					<dim>1</dim>
					<dim>9</dim>
				</port>
			</input>
			<output>
				<port id="1" precision="FP32" names="/model/Clip_2_output_0">
					<dim>-1</dim>
					<dim>1</dim>
					<dim>9</dim>
				</port>
			</output>
		</layer>
		<layer id="305" name="/model/Sqrt_2" type="Sqrt" version="opset1">
			<input>
				<port id="0" precision="FP32">
					<dim>-1</dim>
					<dim>1</dim>
					<dim>9</dim>
				</port>
			</input>
			<output>
				<port id="1" precision="FP32" names="/model/Sqrt_2_output_0">
					<dim>-1</dim>
					<dim>1</dim>
					<dim>9</dim>
				</port>
			</output>
		</layer>
		<layer id="306" name="/model/Constant_39" type="Const" version="opset1">
			<data element_type="i64" shape="1" offset="48" size="8" />
			<output>
				<port id="0" precision="I64" names="/model/Constant_39_output_0">
					<dim>1</dim>
				</port>
			</output>
		</layer>
		<layer id="307" name="/model/Squeeze" type="Squeeze" version="opset1">
			<input>
				<port id="0" precision="FP32">
					<dim>-1</dim>
					<dim>1</dim>
					<dim>9</dim>
				</port>
				<port id="1" precision="I64">
					<dim>1</dim>
				</port>
			</input>
			<output>
				<port id="2" precision="FP32" names="/model/Squeeze_output_0">
					<dim>-1</dim>
					<dim>9</dim>
				</port>
			</output>
		</layer>
		<layer id="308" name="/model/Softmax" type="SoftMax" version="opset8">
			<data axis="1" />
			<input>
				<port id="0" precision="FP32">
					<dim>-1</dim>
					<dim>9</dim>
				</port>
			</input>
			<output>
				<port id="1" precision="FP32" names="/model/Softmax_output_0">
					<dim>-1</dim>
					<dim>9</dim>
				</port>
			</output>
		</layer>
		<layer id="309" name="/model/Sub_3" type="Subtract" version="opset1">
			<data auto_broadcast="numpy" />
			<input>
				<port id="0" precision="FP32">
					<dim>1</dim>
					<dim>1</dim>
				</port>
				<port id="1" precision="FP32">
					<dim>-1</dim>
					<dim>9</dim>
				</port>
			</input>
			<output>
				<port id="2" precision="FP32" names="/model/Sub_3_output_0">
					<dim>-1</dim>
					<dim>9</dim>
				</port>
			</output>
		</layer>
		<layer id="310" name="/pre_processor/export_transform/Constant" type="Const" version="opset1">
			<data element_type="i64" shape="" offset="32" size="8" />
			<output>
				<port id="0" precision="I64" names="/pre_processor/export_transform/Constant_output_0" />
			</output>
		</layer>
		<layer id="311" name="Constant_10838" type="Const" version="opset1">
			<data element_type="i64" shape="" offset="48" size="8" />
			<output>
				<port id="0" precision="I64" />
			</output>
		</layer>
		<layer id="312" name="/model/Gather_19" type="Gather" version="opset8">
			<data batch_dims="0" />
			<input>
				<port id="0" precision="FP32">
					<dim>-1</dim>
					<dim>9</dim>
				</port>
				<port id="1" precision="I64" />
				<port id="2" precision="I64" />
			</input>
			<output>
				<port id="3" precision="FP32" names="/model/Gather_19_output_0">
					<dim>-1</dim>
				</port>
			</output>
		</layer>
		<layer id="313" name="/model/Flatten_1" type="Reshape" version="opset1">
			<data special_zero="true" />
			<input>
				<port id="0" precision="FP32">
					<dim>-1</dim>
					<dim>-1</dim>
				</port>
				<port id="1" precision="I64">
					<dim>2</dim>
				</port>
			</input>
			<output>
				<port id="2" precision="FP32" names="/model/Flatten_1_output_0">
					<dim>-1</dim>
					<dim>-1</dim>
				</port>
			</output>
		</layer>
		<layer id="314" name="/model/Mul_2" type="Multiply" version="opset1">
			<data auto_broadcast="numpy" />
			<input>
				<port id="0" precision="I64">
					<dim>-1</dim>
				</port>
				<port id="1" precision="I64">
					<dim>1</dim>
				</port>
			</input>
			<output>
				<port id="2" precision="I64" names="/model/Mul_2_output_0">
					<dim>-1</dim>
				</port>
			</output>
		</layer>
		<layer id="315" name="/model/Add_2" type="Add" version="opset1">
			<data auto_broadcast="numpy" />
			<input>
				<port id="0" precision="I64">
					<dim>-1</dim>
				</port>
				<port id="1" precision="I64">
					<dim>-1</dim>
				</port>
			</input>
			<output>
				<port id="2" precision="I64" names="/model/Add_2_output_0">
					<dim>-1</dim>
				</port>
			</output>
		</layer>
		<layer id="316" name="Constant_10732" type="Const" version="opset1">
			<data element_type="i64" shape="" offset="32" size="8" />
			<output>
				<port id="0" precision="I64" />
			</output>
		</layer>
		<layer id="317" name="/model/Gather_14" type="Gather" version="opset8">
			<data batch_dims="0" />
			<input>
				<port id="0" precision="FP32">
					<dim>-1</dim>
					<dim>-1</dim>
				</port>
				<port id="1" precision="I64">
					<dim>-1</dim>
				</port>
				<port id="2" precision="I64" />
			</input>
			<output>
				<port id="3" precision="FP32" names="/model/Gather_14_output_0">
					<dim>-1</dim>
					<dim>-1</dim>
				</port>
			</output>
		</layer>
		<layer id="318" name="Constant_11301" type="Const" version="opset1">
			<data element_type="i64" shape="1" offset="5561318" size="8" />
			<rt_info>
				<attribute name="precise" version="0" />
			</rt_info>
			<output>
				<port id="0" precision="I64">
					<dim>1</dim>
				</port>
			</output>
		</layer>
		<layer id="319" name="/model/Reshape_6" type="Reshape" version="opset1">
			<data special_zero="true" />
			<input>
				<port id="0" precision="FP32">
					<dim>-1</dim>
					<dim>-1</dim>
				</port>
				<port id="1" precision="I64">
					<dim>1</dim>
				</port>
			</input>
			<output>
				<port id="2" precision="FP32" names="/model/Reshape_6_output_0,/model/Reshape_7_output_0">
					<dim>-1</dim>
				</port>
			</output>
		</layer>
		<layer id="320" name="/model/Mul_6" type="Multiply" version="opset1">
			<data auto_broadcast="numpy" />
			<input>
				<port id="0" precision="FP32">
					<dim>-1</dim>
				</port>
				<port id="1" precision="FP32">
					<dim>-1</dim>
				</port>
			</input>
			<output>
				<port id="2" precision="FP32" names="/model/Mul_6_output_0">
					<dim>-1</dim>
				</port>
			</output>
		</layer>
		<layer id="321" name="Constant_14224_compressed" type="Const" version="opset1">
			<data element_type="f16" shape="1" offset="12195498" size="2" />
			<output>
				<port id="0" precision="FP16">
					<dim>1</dim>
				</port>
			</output>
		</layer>
		<layer id="322" name="Constant_14224" type="Convert" version="opset1">
			<data destination_type="f32" />
			<rt_info>
				<attribute name="decompression" version="0" />
			</rt_info>
			<input>
				<port id="0" precision="FP16">
					<dim>1</dim>
				</port>
			</input>
			<output>
				<port id="1" precision="FP32">
					<dim>1</dim>
				</port>
			</output>
		</layer>
		<layer id="323" name="Multiply_14115" type="Multiply" version="opset1">
			<data auto_broadcast="numpy" />
			<input>
				<port id="0" precision="FP32">
					<dim>-1</dim>
				</port>
				<port id="1" precision="FP32">
					<dim>1</dim>
				</port>
			</input>
			<output>
				<port id="2" precision="FP32">
					<dim>-1</dim>
				</port>
			</output>
		</layer>
		<layer id="324" name="Constant_14225_compressed" type="Const" version="opset1">
			<data element_type="f16" shape="1" offset="12195500" size="2" />
			<output>
				<port id="0" precision="FP16">
					<dim>1</dim>
				</port>
			</output>
		</layer>
		<layer id="325" name="Constant_14225" type="Convert" version="opset1">
			<data destination_type="f32" />
			<rt_info>
				<attribute name="decompression" version="0" />
			</rt_info>
			<input>
				<port id="0" precision="FP16">
					<dim>1</dim>
				</port>
			</input>
			<output>
				<port id="1" precision="FP32">
					<dim>1</dim>
				</port>
			</output>
		</layer>
		<layer id="326" name="/post_processor/Add" type="Add" version="opset1">
			<data auto_broadcast="numpy" />
			<input>
				<port id="0" precision="FP32">
					<dim>-1</dim>
				</port>
				<port id="1" precision="FP32">
					<dim>1</dim>
				</port>
			</input>
			<output>
				<port id="2" precision="FP32" names="/post_processor/Add_output_0">
					<dim>-1</dim>
				</port>
			</output>
		</layer>
		<layer id="327" name="pred_score" type="Clamp" version="opset1">
			<data min="0" max="1" />
			<input>
				<port id="0" precision="FP32">
					<dim>-1</dim>
				</port>
			</input>
			<output>
				<port id="1" precision="FP32" names="pred_score">
					<dim>-1</dim>
				</port>
			</output>
		</layer>
		<layer id="328" name="Constant_14226_compressed" type="Const" version="opset1">
			<data element_type="f16" shape="1" offset="8883814" size="2" />
			<output>
				<port id="0" precision="FP16">
					<dim>1</dim>
				</port>
			</output>
		</layer>
		<layer id="329" name="Constant_14226" type="Convert" version="opset1">
			<data destination_type="f32" />
			<rt_info>
				<attribute name="decompression" version="0" />
			</rt_info>
			<input>
				<port id="0" precision="FP16">
					<dim>1</dim>
				</port>
			</input>
			<output>
				<port id="1" precision="FP32">
					<dim>1</dim>
				</port>
			</output>
		</layer>
		<layer id="330" name="pred_label" type="Greater" version="opset1">
			<data auto_broadcast="numpy" />
			<input>
				<port id="0" precision="FP32">
					<dim>-1</dim>
				</port>
				<port id="1" precision="FP32">
					<dim>1</dim>
				</port>
			</input>
			<output>
				<port id="2" precision="BOOL" names="pred_label">
					<dim>-1</dim>
				</port>
			</output>
		</layer>
		<layer id="332" name="pred_score/sink_port_0" type="Result" version="opset1">
			<input>
				<port id="0" precision="FP32">
					<dim>-1</dim>
				</port>
			</input>
		</layer>
		<layer id="331" name="pred_label/sink_port_0" type="Result" version="opset1">
			<input>
				<port id="0" precision="BOOL">
					<dim>-1</dim>
				</port>
			</input>
		</layer>
		<layer id="210" name="anomaly_map/sink_port_0" type="Result" version="opset1">
			<input>
				<port id="0" precision="FP32">
					<dim>-1</dim>
					<dim>1</dim>
					<dim>224</dim>
					<dim>224</dim>
				</port>
			</input>
		</layer>
		<layer id="209" name="pred_mask/sink_port_0" type="Result" version="opset1">
			<input>
				<port id="0" precision="BOOL">
					<dim>-1</dim>
					<dim>1</dim>
					<dim>224</dim>
					<dim>224</dim>
				</port>
			</input>
		</layer>
	</layers>
	<edges>
		<edge from-layer="0" from-port="0" to-layer="2" to-port="0" />
		<edge from-layer="1" from-port="0" to-layer="2" to-port="1" />
		<edge from-layer="2" from-port="2" to-layer="3" to-port="0" />
		<edge from-layer="2" from-port="2" to-layer="11" to-port="0" />
		<edge from-layer="3" from-port="1" to-layer="172" to-port="0" />
		<edge from-layer="3" from-port="1" to-layer="8" to-port="0" />
		<edge from-layer="4" from-port="0" to-layer="8" to-port="1" />
		<edge from-layer="5" from-port="0" to-layer="8" to-port="2" />
		<edge from-layer="6" from-port="0" to-layer="8" to-port="3" />
		<edge from-layer="7" from-port="0" to-layer="8" to-port="4" />
		<edge from-layer="8" from-port="5" to-layer="10" to-port="0" />
		<edge from-layer="9" from-port="0" to-layer="10" to-port="1" />
		<edge from-layer="10" from-port="2" to-layer="11" to-port="1" />
		<edge from-layer="11" from-port="2" to-layer="13" to-port="0" />
		<edge from-layer="12" from-port="0" to-layer="13" to-port="1" />
		<edge from-layer="13" from-port="2" to-layer="18" to-port="0" />
		<edge from-layer="14" from-port="0" to-layer="18" to-port="1" />
		<edge from-layer="15" from-port="0" to-layer="18" to-port="2" />
		<edge from-layer="16" from-port="0" to-layer="18" to-port="3" />
		<edge from-layer="17" from-port="0" to-layer="18" to-port="4" />
		<edge from-layer="18" from-port="5" to-layer="21" to-port="0" />
		<edge from-layer="19" from-port="0" to-layer="20" to-port="0" />
		<edge from-layer="20" from-port="1" to-layer="21" to-port="1" />
		<edge from-layer="21" from-port="2" to-layer="24" to-port="0" />
		<edge from-layer="22" from-port="0" to-layer="23" to-port="0" />
		<edge from-layer="23" from-port="1" to-layer="24" to-port="1" />
		<edge from-layer="24" from-port="2" to-layer="27" to-port="0" />
		<edge from-layer="24" from-port="2" to-layer="185" to-port="0" />
		<edge from-layer="25" from-port="0" to-layer="26" to-port="0" />
		<edge from-layer="26" from-port="1" to-layer="27" to-port="1" />
		<edge from-layer="27" from-port="2" to-layer="30" to-port="0" />
		<edge from-layer="28" from-port="0" to-layer="29" to-port="0" />
		<edge from-layer="29" from-port="1" to-layer="30" to-port="1" />
		<edge from-layer="30" from-port="2" to-layer="31" to-port="0" />
		<edge from-layer="31" from-port="1" to-layer="32" to-port="0" />
		<edge from-layer="32" from-port="1" to-layer="35" to-port="0" />
		<edge from-layer="32" from-port="1" to-layer="46" to-port="1" />
		<edge from-layer="33" from-port="0" to-layer="34" to-port="0" />
		<edge from-layer="34" from-port="1" to-layer="35" to-port="1" />
		<edge from-layer="35" from-port="2" to-layer="38" to-port="0" />
		<edge from-layer="36" from-port="0" to-layer="37" to-port="0" />
		<edge from-layer="37" from-port="1" to-layer="38" to-port="1" />
		<edge from-layer="38" from-port="2" to-layer="39" to-port="0" />
		<edge from-layer="39" from-port="1" to-layer="42" to-port="0" />
		<edge from-layer="40" from-port="0" to-layer="41" to-port="0" />
		<edge from-layer="41" from-port="1" to-layer="42" to-port="1" />
		<edge from-layer="42" from-port="2" to-layer="45" to-port="0" />
		<edge from-layer="43" from-port="0" to-layer="44" to-port="0" />
		<edge from-layer="44" from-port="1" to-layer="45" to-port="1" />
		<edge from-layer="45" from-port="2" to-layer="46" to-port="0" />
		<edge from-layer="46" from-port="2" to-layer="47" to-port="0" />
		<edge from-layer="47" from-port="1" to-layer="50" to-port="0" />
		<edge from-layer="47" from-port="1" to-layer="61" to-port="1" />
		<edge from-layer="48" from-port="0" to-layer="49" to-port="0" />
		<edge from-layer="49" from-port="1" to-layer="50" to-port="1" />
		<edge from-layer="50" from-port="2" to-layer="53" to-port="0" />
		<edge from-layer="51" from-port="0" to-layer="52" to-port="0" />
		<edge from-layer="52" from-port="1" to-layer="53" to-port="1" />
		<edge from-layer="53" from-port="2" to-layer="54" to-port="0" />
		<edge from-layer="54" from-port="1" to-layer="57" to-port="0" />
		<edge from-layer="55" from-port="0" to-layer="56" to-port="0" />
		<edge from-layer="56" from-port="1" to-layer="57" to-port="1" />
		<edge from-layer="57" from-port="2" to-layer="60" to-port="0" />
		<edge from-layer="58" from-port="0" to-layer="59" to-port="0" />
		<edge from-layer="59" from-port="1" to-layer="60" to-port="1" />
		<edge from-layer="60" from-port="2" to-layer="61" to-port="0" />
		<edge from-layer="61" from-port="2" to-layer="62" to-port="0" />
		<edge from-layer="62" from-port="1" to-layer="78" to-port="0" />
		<edge from-layer="62" from-port="1" to-layer="65" to-port="0" />
		<edge from-layer="63" from-port="0" to-layer="64" to-port="0" />
		<edge from-layer="64" from-port="1" to-layer="65" to-port="1" />
		<edge from-layer="65" from-port="2" to-layer="68" to-port="0" />
		<edge from-layer="66" from-port="0" to-layer="67" to-port="0" />
		<edge from-layer="67" from-port="1" to-layer="68" to-port="1" />
		<edge from-layer="68" from-port="2" to-layer="69" to-port="0" />
		<edge from-layer="69" from-port="1" to-layer="72" to-port="0" />
		<edge from-layer="70" from-port="0" to-layer="71" to-port="0" />
		<edge from-layer="71" from-port="1" to-layer="72" to-port="1" />
		<edge from-layer="72" from-port="2" to-layer="75" to-port="0" />
		<edge from-layer="73" from-port="0" to-layer="74" to-port="0" />
		<edge from-layer="74" from-port="1" to-layer="75" to-port="1" />
		<edge from-layer="75" from-port="2" to-layer="82" to-port="0" />
		<edge from-layer="76" from-port="0" to-layer="77" to-port="0" />
		<edge from-layer="77" from-port="1" to-layer="78" to-port="1" />
		<edge from-layer="78" from-port="2" to-layer="81" to-port="0" />
		<edge from-layer="79" from-port="0" to-layer="80" to-port="0" />
		<edge from-layer="80" from-port="1" to-layer="81" to-port="1" />
		<edge from-layer="81" from-port="2" to-layer="82" to-port="1" />
		<edge from-layer="82" from-port="2" to-layer="83" to-port="0" />
		<edge from-layer="83" from-port="1" to-layer="86" to-port="0" />
		<edge from-layer="83" from-port="1" to-layer="97" to-port="1" />
		<edge from-layer="84" from-port="0" to-layer="85" to-port="0" />
		<edge from-layer="85" from-port="1" to-layer="86" to-port="1" />
		<edge from-layer="86" from-port="2" to-layer="89" to-port="0" />
		<edge from-layer="87" from-port="0" to-layer="88" to-port="0" />
		<edge from-layer="88" from-port="1" to-layer="89" to-port="1" />
		<edge from-layer="89" from-port="2" to-layer="90" to-port="0" />
		<edge from-layer="90" from-port="1" to-layer="93" to-port="0" />
		<edge from-layer="91" from-port="0" to-layer="92" to-port="0" />
		<edge from-layer="92" from-port="1" to-layer="93" to-port="1" />
		<edge from-layer="93" from-port="2" to-layer="96" to-port="0" />
		<edge from-layer="94" from-port="0" to-layer="95" to-port="0" />
		<edge from-layer="95" from-port="1" to-layer="96" to-port="1" />
		<edge from-layer="96" from-port="2" to-layer="97" to-port="0" />
		<edge from-layer="97" from-port="2" to-layer="98" to-port="0" />
		<edge from-layer="98" from-port="1" to-layer="102" to-port="0" />
		<edge from-layer="98" from-port="1" to-layer="99" to-port="0" />
		<edge from-layer="98" from-port="1" to-layer="115" to-port="0" />
		<edge from-layer="99" from-port="1" to-layer="149" to-port="0" />
		<edge from-layer="99" from-port="1" to-layer="143" to-port="0" />
		<edge from-layer="100" from-port="0" to-layer="101" to-port="0" />
		<edge from-layer="101" from-port="1" to-layer="102" to-port="1" />
		<edge from-layer="102" from-port="2" to-layer="105" to-port="0" />
		<edge from-layer="103" from-port="0" to-layer="104" to-port="0" />
		<edge from-layer="104" from-port="1" to-layer="105" to-port="1" />
		<edge from-layer="105" from-port="2" to-layer="106" to-port="0" />
		<edge from-layer="106" from-port="1" to-layer="109" to-port="0" />
		<edge from-layer="107" from-port="0" to-layer="108" to-port="0" />
		<edge from-layer="108" from-port="1" to-layer="109" to-port="1" />
		<edge from-layer="109" from-port="2" to-layer="112" to-port="0" />
		<edge from-layer="110" from-port="0" to-layer="111" to-port="0" />
		<edge from-layer="111" from-port="1" to-layer="112" to-port="1" />
		<edge from-layer="112" from-port="2" to-layer="119" to-port="0" />
		<edge from-layer="113" from-port="0" to-layer="114" to-port="0" />
		<edge from-layer="114" from-port="1" to-layer="115" to-port="1" />
		<edge from-layer="115" from-port="2" to-layer="118" to-port="0" />
		<edge from-layer="116" from-port="0" to-layer="117" to-port="0" />
		<edge from-layer="117" from-port="1" to-layer="118" to-port="1" />
		<edge from-layer="118" from-port="2" to-layer="119" to-port="1" />
		<edge from-layer="119" from-port="2" to-layer="120" to-port="0" />
		<edge from-layer="120" from-port="1" to-layer="123" to-port="0" />
		<edge from-layer="120" from-port="1" to-layer="134" to-port="1" />
		<edge from-layer="121" from-port="0" to-layer="122" to-port="0" />
		<edge from-layer="122" from-port="1" to-layer="123" to-port="1" />
		<edge from-layer="123" from-port="2" to-layer="126" to-port="0" />
		<edge from-layer="124" from-port="0" to-layer="125" to-port="0" />
		<edge from-layer="125" from-port="1" to-layer="126" to-port="1" />
		<edge from-layer="126" from-port="2" to-layer="127" to-port="0" />
		<edge from-layer="127" from-port="1" to-layer="130" to-port="0" />
		<edge from-layer="128" from-port="0" to-layer="129" to-port="0" />
		<edge from-layer="129" from-port="1" to-layer="130" to-port="1" />
		<edge from-layer="130" from-port="2" to-layer="133" to-port="0" />
		<edge from-layer="131" from-port="0" to-layer="132" to-port="0" />
		<edge from-layer="132" from-port="1" to-layer="133" to-port="1" />
		<edge from-layer="133" from-port="2" to-layer="134" to-port="0" />
		<edge from-layer="134" from-port="2" to-layer="135" to-port="0" />
		<edge from-layer="135" from-port="1" to-layer="136" to-port="0" />
		<edge from-layer="136" from-port="1" to-layer="137" to-port="0" />
		<edge from-layer="136" from-port="1" to-layer="148" to-port="0" />
		<edge from-layer="137" from-port="1" to-layer="142" to-port="0" />
		<edge from-layer="138" from-port="0" to-layer="142" to-port="1" />
		<edge from-layer="139" from-port="0" to-layer="142" to-port="2" />
		<edge from-layer="140" from-port="0" to-layer="142" to-port="3" />
		<edge from-layer="141" from-port="0" to-layer="142" to-port="4" />
		<edge from-layer="142" from-port="5" to-layer="147" to-port="0" />
		<edge from-layer="143" from-port="1" to-layer="146" to-port="0" />
		<edge from-layer="144" from-port="0" to-layer="146" to-port="1" />
		<edge from-layer="145" from-port="0" to-layer="146" to-port="2" />
		<edge from-layer="146" from-port="3" to-layer="147" to-port="1" />
		<edge from-layer="146" from-port="3" to-layer="179" to-port="2" />
		<edge from-layer="147" from-port="2" to-layer="148" to-port="1" />
		<edge from-layer="148" from-port="2" to-layer="149" to-port="1" />
		<edge from-layer="149" from-port="2" to-layer="151" to-port="0" />
		<edge from-layer="150" from-port="0" to-layer="151" to-port="1" />
		<edge from-layer="151" from-port="2" to-layer="153" to-port="0" />
		<edge from-layer="152" from-port="0" to-layer="153" to-port="1" />
		<edge from-layer="153" from-port="2" to-layer="156" to-port="0" />
		<edge from-layer="153" from-port="2" to-layer="161" to-port="0" />
		<edge from-layer="153" from-port="2" to-layer="219" to-port="0" />
		<edge from-layer="154" from-port="0" to-layer="155" to-port="0" />
		<edge from-layer="155" from-port="1" to-layer="156" to-port="1" />
		<edge from-layer="156" from-port="2" to-layer="158" to-port="0" />
		<edge from-layer="157" from-port="0" to-layer="280" to-port="1" />
		<edge from-layer="157" from-port="0" to-layer="251" to-port="1" />
		<edge from-layer="157" from-port="0" to-layer="300" to-port="1" />
		<edge from-layer="157" from-port="0" to-layer="158" to-port="1" />
		<edge from-layer="158" from-port="2" to-layer="162" to-port="0" />
		<edge from-layer="159" from-port="0" to-layer="160" to-port="0" />
		<edge from-layer="160" from-port="1" to-layer="161" to-port="1" />
		<edge from-layer="161" from-port="2" to-layer="162" to-port="1" />
		<edge from-layer="162" from-port="2" to-layer="165" to-port="0" />
		<edge from-layer="163" from-port="0" to-layer="164" to-port="0" />
		<edge from-layer="164" from-port="1" to-layer="165" to-port="1" />
		<edge from-layer="164" from-port="1" to-layer="285" to-port="1" />
		<edge from-layer="165" from-port="2" to-layer="166" to-port="0" />
		<edge from-layer="166" from-port="1" to-layer="167" to-port="0" />
		<edge from-layer="167" from-port="1" to-layer="255" to-port="0" />
		<edge from-layer="167" from-port="1" to-layer="169" to-port="0" />
		<edge from-layer="168" from-port="0" to-layer="169" to-port="1" />
		<edge from-layer="169" from-port="2" to-layer="175" to-port="0" />
		<edge from-layer="170" from-port="0" to-layer="172" to-port="1" />
		<edge from-layer="171" from-port="0" to-layer="172" to-port="2" />
		<edge from-layer="172" from-port="3" to-layer="179" to-port="0" />
		<edge from-layer="172" from-port="3" to-layer="174" to-port="0" />
		<edge from-layer="172" from-port="3" to-layer="231" to-port="0" />
		<edge from-layer="172" from-port="3" to-layer="218" to-port="0" />
		<edge from-layer="173" from-port="0" to-layer="174" to-port="1" />
		<edge from-layer="174" from-port="2" to-layer="259" to-port="1" />
		<edge from-layer="174" from-port="2" to-layer="175" to-port="1" />
		<edge from-layer="175" from-port="2" to-layer="313" to-port="0" />
		<edge from-layer="175" from-port="2" to-layer="177" to-port="0" />
		<edge from-layer="175" from-port="2" to-layer="226" to-port="0" />
		<edge from-layer="175" from-port="2" to-layer="213" to-port="0" />
		<edge from-layer="176" from-port="0" to-layer="177" to-port="1" />
		<edge from-layer="177" from-port="2" to-layer="190" to-port="0" />
		<edge from-layer="178" from-port="0" to-layer="179" to-port="1" />
		<edge from-layer="179" from-port="3" to-layer="184" to-port="0" />
		<edge from-layer="180" from-port="0" to-layer="184" to-port="1" />
		<edge from-layer="181" from-port="0" to-layer="184" to-port="2" />
		<edge from-layer="182" from-port="0" to-layer="184" to-port="3" />
		<edge from-layer="183" from-port="0" to-layer="184" to-port="4" />
		<edge from-layer="184" from-port="5" to-layer="189" to-port="0" />
		<edge from-layer="185" from-port="1" to-layer="188" to-port="0" />
		<edge from-layer="186" from-port="0" to-layer="188" to-port="1" />
		<edge from-layer="187" from-port="0" to-layer="188" to-port="2" />
		<edge from-layer="188" from-port="3" to-layer="189" to-port="1" />
		<edge from-layer="189" from-port="2" to-layer="190" to-port="1" />
		<edge from-layer="190" from-port="2" to-layer="195" to-port="0" />
		<edge from-layer="191" from-port="0" to-layer="195" to-port="1" />
		<edge from-layer="192" from-port="0" to-layer="195" to-port="2" />
		<edge from-layer="193" from-port="0" to-layer="194" to-port="0" />
		<edge from-layer="194" from-port="1" to-layer="195" to-port="3" />
		<edge from-layer="195" from-port="4" to-layer="198" to-port="0" />
		<edge from-layer="196" from-port="0" to-layer="197" to-port="0" />
		<edge from-layer="197" from-port="1" to-layer="198" to-port="1" />
		<edge from-layer="198" from-port="2" to-layer="201" to-port="0" />
		<edge from-layer="199" from-port="0" to-layer="200" to-port="0" />
		<edge from-layer="200" from-port="1" to-layer="201" to-port="1" />
		<edge from-layer="201" from-port="2" to-layer="204" to-port="0" />
		<edge from-layer="202" from-port="0" to-layer="203" to-port="0" />
		<edge from-layer="203" from-port="1" to-layer="204" to-port="1" />
		<edge from-layer="204" from-port="2" to-layer="205" to-port="0" />
		<edge from-layer="205" from-port="1" to-layer="210" to-port="0" />
		<edge from-layer="205" from-port="1" to-layer="208" to-port="0" />
		<edge from-layer="206" from-port="0" to-layer="207" to-port="0" />
		<edge from-layer="207" from-port="1" to-layer="208" to-port="1" />
		<edge from-layer="208" from-port="2" to-layer="209" to-port="0" />
		<edge from-layer="211" from-port="0" to-layer="212" to-port="0" />
		<edge from-layer="212" from-port="1" to-layer="309" to-port="0" />
		<edge from-layer="213" from-port="1" to-layer="221" to-port="0" />
		<edge from-layer="213" from-port="1" to-layer="216" to-port="0" />
		<edge from-layer="214" from-port="0" to-layer="216" to-port="1" />
		<edge from-layer="215" from-port="0" to-layer="216" to-port="2" />
		<edge from-layer="216" from-port="3" to-layer="218" to-port="1" />
		<edge from-layer="216" from-port="3" to-layer="314" to-port="1" />
		<edge from-layer="217" from-port="0" to-layer="218" to-port="2" />
		<edge from-layer="218" from-port="3" to-layer="219" to-port="1" />
		<edge from-layer="219" from-port="2" to-layer="234" to-port="0" />
		<edge from-layer="219" from-port="2" to-layer="224" to-port="0" />
		<edge from-layer="220" from-port="0" to-layer="221" to-port="1" />
		<edge from-layer="221" from-port="2" to-layer="223" to-port="0" />
		<edge from-layer="222" from-port="0" to-layer="223" to-port="1" />
		<edge from-layer="223" from-port="2" to-layer="224" to-port="1" />
		<edge from-layer="223" from-port="2" to-layer="313" to-port="1" />
		<edge from-layer="224" from-port="2" to-layer="241" to-port="0" />
		<edge from-layer="225" from-port="0" to-layer="226" to-port="1" />
		<edge from-layer="226" from-port="3" to-layer="227" to-port="0" />
		<edge from-layer="227" from-port="1" to-layer="229" to-port="0" />
		<edge from-layer="228" from-port="0" to-layer="229" to-port="1" />
		<edge from-layer="229" from-port="2" to-layer="270" to-port="0" />
		<edge from-layer="229" from-port="2" to-layer="239" to-port="0" />
		<edge from-layer="229" from-port="2" to-layer="315" to-port="0" />
		<edge from-layer="230" from-port="0" to-layer="233" to-port="0" />
		<edge from-layer="231" from-port="1" to-layer="233" to-port="1" />
		<edge from-layer="232" from-port="0" to-layer="233" to-port="2" />
		<edge from-layer="233" from-port="3" to-layer="269" to-port="0" />
		<edge from-layer="233" from-port="3" to-layer="238" to-port="0" />
		<edge from-layer="233" from-port="3" to-layer="314" to-port="0" />
		<edge from-layer="234" from-port="1" to-layer="237" to-port="0" />
		<edge from-layer="235" from-port="0" to-layer="237" to-port="1" />
		<edge from-layer="236" from-port="0" to-layer="237" to-port="2" />
		<edge from-layer="237" from-port="3" to-layer="238" to-port="1" />
		<edge from-layer="238" from-port="2" to-layer="239" to-port="1" />
		<edge from-layer="239" from-port="2" to-layer="241" to-port="1" />
		<edge from-layer="240" from-port="0" to-layer="241" to-port="2" />
		<edge from-layer="241" from-port="3" to-layer="243" to-port="0" />
		<edge from-layer="242" from-port="0" to-layer="243" to-port="1" />
		<edge from-layer="243" from-port="2" to-layer="245" to-port="0" />
		<edge from-layer="244" from-port="0" to-layer="245" to-port="1" />
		<edge from-layer="245" from-port="2" to-layer="247" to-port="0" />
		<edge from-layer="246" from-port="0" to-layer="247" to-port="1" />
		<edge from-layer="247" from-port="2" to-layer="250" to-port="0" />
		<edge from-layer="247" from-port="2" to-layer="295" to-port="0" />
		<edge from-layer="248" from-port="0" to-layer="249" to-port="0" />
		<edge from-layer="249" from-port="1" to-layer="250" to-port="1" />
		<edge from-layer="250" from-port="2" to-layer="251" to-port="0" />
		<edge from-layer="251" from-port="2" to-layer="296" to-port="0" />
		<edge from-layer="252" from-port="0" to-layer="253" to-port="0" />
		<edge from-layer="253" from-port="1" to-layer="276" to-port="0" />
		<edge from-layer="253" from-port="1" to-layer="291" to-port="0" />
		<edge from-layer="254" from-port="0" to-layer="255" to-port="1" />
		<edge from-layer="255" from-port="3" to-layer="256" to-port="0" />
		<edge from-layer="256" from-port="1" to-layer="258" to-port="0" />
		<edge from-layer="257" from-port="0" to-layer="258" to-port="1" />
		<edge from-layer="258" from-port="2" to-layer="259" to-port="0" />
		<edge from-layer="259" from-port="2" to-layer="265" to-port="0" />
		<edge from-layer="259" from-port="2" to-layer="260" to-port="0" />
		<edge from-layer="260" from-port="1" to-layer="262" to-port="0" />
		<edge from-layer="260" from-port="1" to-layer="268" to-port="0" />
		<edge from-layer="261" from-port="0" to-layer="262" to-port="1" />
		<edge from-layer="262" from-port="2" to-layer="264" to-port="0" />
		<edge from-layer="263" from-port="0" to-layer="264" to-port="1" />
		<edge from-layer="264" from-port="2" to-layer="265" to-port="1" />
		<edge from-layer="265" from-port="2" to-layer="272" to-port="0" />
		<edge from-layer="266" from-port="0" to-layer="268" to-port="1" />
		<edge from-layer="267" from-port="0" to-layer="268" to-port="2" />
		<edge from-layer="268" from-port="3" to-layer="269" to-port="1" />
		<edge from-layer="269" from-port="2" to-layer="270" to-port="1" />
		<edge from-layer="270" from-port="2" to-layer="272" to-port="1" />
		<edge from-layer="271" from-port="0" to-layer="272" to-port="2" />
		<edge from-layer="272" from-port="3" to-layer="274" to-port="0" />
		<edge from-layer="273" from-port="0" to-layer="274" to-port="1" />
		<edge from-layer="274" from-port="2" to-layer="276" to-port="1" />
		<edge from-layer="275" from-port="0" to-layer="276" to-port="2" />
		<edge from-layer="276" from-port="3" to-layer="279" to-port="0" />
		<edge from-layer="276" from-port="3" to-layer="283" to-port="0" />
		<edge from-layer="277" from-port="0" to-layer="278" to-port="0" />
		<edge from-layer="278" from-port="1" to-layer="279" to-port="1" />
		<edge from-layer="279" from-port="2" to-layer="280" to-port="0" />
		<edge from-layer="280" from-port="2" to-layer="284" to-port="0" />
		<edge from-layer="281" from-port="0" to-layer="282" to-port="0" />
		<edge from-layer="282" from-port="1" to-layer="283" to-port="1" />
		<edge from-layer="283" from-port="2" to-layer="284" to-port="1" />
		<edge from-layer="284" from-port="2" to-layer="285" to-port="0" />
		<edge from-layer="285" from-port="2" to-layer="286" to-port="0" />
		<edge from-layer="286" from-port="1" to-layer="287" to-port="0" />
		<edge from-layer="287" from-port="1" to-layer="289" to-port="0" />
		<edge from-layer="288" from-port="0" to-layer="289" to-port="1" />
		<edge from-layer="289" from-port="3" to-layer="291" to-port="1" />
		<edge from-layer="290" from-port="0" to-layer="291" to-port="2" />
		<edge from-layer="291" from-port="3" to-layer="294" to-port="0" />
		<edge from-layer="291" from-port="3" to-layer="299" to-port="0" />
		<edge from-layer="292" from-port="0" to-layer="293" to-port="0" />
		<edge from-layer="293" from-port="1" to-layer="294" to-port="1" />
		<edge from-layer="294" from-port="2" to-layer="295" to-port="1" />
		<edge from-layer="295" from-port="2" to-layer="296" to-port="1" />
		<edge from-layer="296" from-port="2" to-layer="303" to-port="0" />
		<edge from-layer="297" from-port="0" to-layer="298" to-port="0" />
		<edge from-layer="298" from-port="1" to-layer="299" to-port="1" />
		<edge from-layer="299" from-port="2" to-layer="300" to-port="0" />
		<edge from-layer="300" from-port="2" to-layer="302" to-port="0" />
		<edge from-layer="301" from-port="0" to-layer="302" to-port="1" />
		<edge from-layer="302" from-port="2" to-layer="303" to-port="1" />
		<edge from-layer="303" from-port="2" to-layer="304" to-port="0" />
		<edge from-layer="304" from-port="1" to-layer="305" to-port="0" />
		<edge from-layer="305" from-port="1" to-layer="307" to-port="0" />
		<edge from-layer="306" from-port="0" to-layer="307" to-port="1" />
		<edge from-layer="307" from-port="2" to-layer="308" to-port="0" />
		<edge from-layer="308" from-port="1" to-layer="309" to-port="1" />
		<edge from-layer="309" from-port="2" to-layer="312" to-port="0" />
		<edge from-layer="310" from-port="0" to-layer="312" to-port="1" />
		<edge from-layer="311" from-port="0" to-layer="312" to-port="2" />
		<edge from-layer="312" from-port="3" to-layer="320" to-port="0" />
		<edge from-layer="313" from-port="2" to-layer="317" to-port="0" />
		<edge from-layer="314" from-port="2" to-layer="315" to-port="1" />
		<edge from-layer="315" from-port="2" to-layer="317" to-port="1" />
		<edge from-layer="316" from-port="0" to-layer="317" to-port="2" />
		<edge from-layer="317" from-port="3" to-layer="319" to-port="0" />
		<edge from-layer="318" from-port="0" to-layer="319" to-port="1" />
		<edge from-layer="319" from-port="2" to-layer="320" to-port="1" />
		<edge from-layer="320" from-port="2" to-layer="323" to-port="0" />
		<edge from-layer="321" from-port="0" to-layer="322" to-port="0" />
		<edge from-layer="322" from-port="1" to-layer="323" to-port="1" />
		<edge from-layer="323" from-port="2" to-layer="326" to-port="0" />
		<edge from-layer="324" from-port="0" to-layer="325" to-port="0" />
		<edge from-layer="325" from-port="1" to-layer="326" to-port="1" />
		<edge from-layer="326" from-port="2" to-layer="327" to-port="0" />
		<edge from-layer="327" from-port="1" to-layer="330" to-port="0" />
		<edge from-layer="327" from-port="1" to-layer="332" to-port="0" />
		<edge from-layer="328" from-port="0" to-layer="329" to-port="0" />
		<edge from-layer="329" from-port="1" to-layer="330" to-port="1" />
		<edge from-layer="330" from-port="2" to-layer="331" to-port="0" />
	</edges>
	<rt_info>
		<Runtime_version value="2025.0.0-17942-1f68be9f594-releases/2025/0" />
		<conversion_parameters>
			<is_python_object value="False" />
		</conversion_parameters>
	</rt_info>
</net>
